assets/model.tflite (tflite, 854696 bytes, 18 tensors)

arith.constant f4 [128]
-0.8109926 -0.87668204 -0.41986358 -0.40149626 0.022511188 -0.7409962 -0.41012272 0.29529902
-0.7774767 -0.66842115 -0.14481992 0.33895302 -0.27144402 -0.08253474 0.3401236 0.02914444
0.1401164 -0.3237884 0.3132638 -0.57101506 -0.15604167 -0.85895485 -0.288104 -0.55433017
-0.30688184 0.35437626 -0.54611844 -0.44684243 -0.47019514 0.11207991 -0.8368177 -0.6243229
-0.79078877 -0.36566234 -0.46032855 -0.1263719 -0.024695475 -0.6406269 -0.6037376 -0.08223606
-0.3180252 -0.12759764 -0.24329527 -0.46949643 0.13795196 -0.0113440305 -0.7763663 -0.38843164
0.21002229 -0.8803277 0.27327284 0.03504404 0.17066583 -0.37513155 0.27833542 -0.6984823
0.15309101 -0.7822601 -0.05104448 0.076828405 -0.48725232 -0.72879547 -0.88508093 -0.5372064
0.082747705 0.17035788 -0.3488136 -0.07372183 -0.40126687 -0.20113187 -0.7639886 -0.21968631
0.06936586 -0.29567254 -0.7166608 0.09149465 -0.44876468 -0.6932511 -0.68258405 0.30212653
-0.06536591 -0.81026214 0.12854013 0.3006494 -0.40602976 -0.39451286 0.20562072 -0.29115996
-0.45905888 -0.04119449 -0.202474 0.16022155 -0.43057105 -0.33399808 -0.57928836 -0.9483166
0.33307856 0.27294916 0.040474903 -0.029561447 -0.028918274 -0.34407428 -0.34386906 0.26041692
-0.39050785 -0.84592474 -0.2112083 -0.3351391 0.08366345 0.32963264 -0.25719294 0.04418161
0.31504524 -0.29118812 0.054986205 -0.58521885 -0.27608117 -0.36028063 0.26751655 -0.52644163
-0.30834895 -0.8086761 -0.06807271 -0.5710245 0.1075543 -0.60863227 0.17032103 -0.08934901
00000000: 369d 4fbf 3c6e 60bf 5cf8 d6be eb90 cdbe
00000010: 6269 b83c edb1 3dbf 9bfb d1be 6f31 973e
00000020: b708 47bf a61d 2bbf ac4b 14be 408b ad3e
00000030: b6fa 8abe f907 a9bd ae24 ae3e 52c0 ee3c
00000040: ac7a 0f3e 98c7 a5be 1d64 a03e 0b2e 12bf
00000050: 63c9 1fbe 77e4 5bbf 5e82 93be 95e8 0dbf
00000060: 9e1f 9dbe ce70 b53e 6bce 0bbf 88c8 e4be
00000070: 6bbd f0be 278a e53d af39 56bf a0d3 1fbf
00000080: 2271 4abf 1838 bbbe 2fb0 ebbe a367 01be
00000090: 2a4e cabc 2000 24bf 8c8e 1abf 616b a8bd
000000a0: 33d4 a2be f5a8 02be 6522 79be d661 f0be
000000b0: 4743 0d3e 50dc 39bc f1bf 46bf 83e0 c6be
000000c0: 1510 573e 285d 61bf 6bea 8b3e 578a 0f3d
000000d0: 06c3 2e3e 3e11 c0be fb81 8e3e bccf 32bf
000000e0: e4c3 1c3e 3342 48bf 0414 51bd 3658 9d3d
000000f0: 2379 f9be 5792 3abf aa94 62bf 5c86 09bf
00000100: a177 a93d 4c72 2e3e b297 b2be 79fb 96bd
00000110: da72 cdbe 83f5 4dbe c294 43bf 73f5 60be
00000120: b00f 8e3d 6462 97be 1577 37bf 8c61 bb3d
00000130: 7cc4 e5be e778 31bf d4bd 2ebf 54b0 9a3e
00000140: 90de 85bd 576d 4fbf 06a0 033e b8ee 993e
00000150: 22e3 cfbe 97fd c9be 3d8e 523e eb12 95be
00000160: c409 ebbe 8ebb 28bd 5855 4fbe 1e11 243e
00000170: cf73 dcbe cc01 abbe 3e4c 14bf e0c4 72bf
00000180: 4689 aa3e febf 8b3e 03c9 253d d92a f2bc
00000190: 04e6 ecbc 812a b0be 9b0f b0be 5e55 853e
000001a0: a5f0 c7be 868e 58bf fd46 58be 5a97 abbe
000001b0: be57 ab3d 9cc5 a83e cbae 83be c7f7 343d
000001c0: 9c4d a13e 9c16 95be 3739 613d e7d0 15bf
000001d0: 835a 8dbe b476 b8be eef7 883e e1c4 06bf
000001e0: eadf 9dbe 6605 4fbf b469 8bbd a92e 12bf
000001f0: 6e45 dc3d 53cf 1bbf a368 2e3e 9dfc b6bd

arith.constant1 f4 [64]
0.08045789 -0.5552242 0.08489629 -0.04752556 -0.026834032 -0.39513916 -0.21223511 -0.14270453
-0.086522825 0.0828584 -0.009454896 -0.009596256 -0.10511903 -0.014320368 -0.093777165 -0.11589193
-0.031882368 0.013532899 -0.10524818 0.21466963 0.04652218 -0.3615741 0.023009695 -0.06621144
0.10332913 -0.28444177 -0.008399 0.19096668 0.059979226 0.22412859 0.15670103 -0.0011542129
-0.007594138 -0.46028492 0.10274711 -0.060658816 -0.17410094 -0.14844826 -0.09225562 -0.04028146
-0.05326377 -0.013393776 0.017944943 0.124706864 -0.17867681 -0.2955892 0.38805357 -0.13722171
-0.14285606 0.1567253 -0.09948544 -0.004760192 -0.20421457 0.092802 0.0045482963 -0.050027583
0.10612035 -0.04033006 -0.14585543 -0.081601866 0.25087863 0.11567457 0.14257252 -0.2161131
00000000: 1bc7 a43d 2c23 0ebf 1bde ad3d 29aa 42bd
00000010: 0bd3 dbbc ae4f cabe 2954 59be 2321 12be
00000020: e132 b1bd aab1 a93d b5e8 1abc 9d39 1dbc
00000030: a548 d7bd fa9f 6abc 3e0e c0bd c058 edbd
00000040: 1697 02bd 18b9 5d3c 5c8c d7bd 5bd2 5b3e
00000050: 0b8e 3e3d 3e20 b9be d47e bc3c dd99 87bd
00000060: 399e d33d 5aa2 91be f69b 09bc c58c 433e
00000070: c7ac 753d f781 653e 3c76 203e f548 97ba
00000080: 3fd8 f8bb 77aa ebbe 146d d23d 6175 78bd
00000090: 8447 32be d202 18be 84f0 bcbd 2cfe 24bd
000000a0: 1c2b 5abd 9171 5bbc 4601 933c 5066 ff3d
000000b0: 0ef7 36be 7857 97be f5ae c63e d983 0cbe
000000c0: dc48 12be 997c 203e 06bf cbbd 62fb 9bbb
000000d0: a01d 51be fa0e be3d e009 953b b9e9 4cbd
000000e0: a055 d93d 2231 25bd 205b 15be e11e a7bd
000000f0: 2a73 803e cae6 ec3d 88fe 113e c14c 5dbe

arith.constant2 f4 [128, 1, 3, 64]
-0.025006048 -0.014530455 0.020014921 -0.020783717 -0.034142226 -0.043410815 0.08249911 0.04064057
0.05334168 0.1002675 -0.030321116 -0.02824427 -0.032833155 -0.05157846 -0.037519284 0.02315981
0.038218204 0.07065469 0.035443775 0.047330383 -0.021645768 0.08188873 -0.020407869 0.018285694
0.087769 -0.07179354 -0.0015794492 0.04826738 -0.0016391994 0.096686386 0.0805931 0.013794974
0.027690776 0.00027169316 0.0022268319 -0.0052259155 -0.023191381 0.03026029 -0.05237342 0.047418695
0.029967654 -0.024256952 0.06415944 0.010946898 -0.06989878 0.038540617 0.021368852 -0.038037494
0.114469 -0.018173851 -0.007876367 0.04459404 0.047823388 0.09665796 0.07851212 0.011309936
0.04929971 0.012781252 0.05567718 -0.043047316 0.036705047 0.07506093 0.007122096 0.07385378
0.04523898 0.01555228 0.013471026 0.019791802 0.001070268 -0.05375386 0.0662156 -0.028615361
0.050426748 -0.016835768 0.03910283 0.011538278 0.016070316 0.053523872 0.018438714 -0.009126952
-0.044162244 0.030944478 0.04247273 0.044631634 -0.018921958 0.098301575 -0.031500444 -0.052996572
0.06396055 0.043842625 0.04953691 -0.028838707 0.068866305 0.024474641 0.07447384 -0.012811133
-0.008621435 -0.033642408 -0.06513175 0.066170014 0.053047642 0.044675987 -0.029245418 0.0036030633
-0.01625175 -0.0106789125 0.06167587 0.026778586 -0.00040061137 -0.030258808 0.104533285 -0.033288196
-0.007735076 -0.030641934 -0.02893519 -0.002655007 0.07183609 0.0666831 0.016996946 -0.036294613
0.0024053648 0.018251173 0.052615155 -0.042276528 0.019563654 0.03478478 0.06129906 -0.038004946
0.026985992 0.09144719 -0.02318224 -0.02062946 0.016429378 -0.09330286 0.057374127 0.016094325
0.039352674 -0.010855256 0.036746528 -0.007161782 0.03354626 -0.009152309 -0.02526883 -0.035992417
-0.04153988 0.02388938 -0.027334515 -0.019671693 -0.022600353 0.050786104 -0.0006703378 0.0028831628
0.003499905 0.04761795 0.065473065 0.005086126 -0.022728777 0.08715177 -0.08224428 0.008858122
-0.042341277 -0.035920907 -0.0026259685 0.037891187 -0.007792324 0.011182463 0.014664108 -0.051880598
0.030844854 0.028953481 -0.036474247 -0.014316742 -0.008957662 0.031639982 0.064548746 0.04879188
0.0027625768 0.04640309 0.037246943 0.017471831 -0.0031909458 -0.036923625 0.013804527 0.038242057
-0.025139319 -0.05433758 0.03112954 0.033974394 0.030769272 0.054500643 -0.0036041478 -0.08483146
0.018926062 0.041457135 -0.08755559 0.09399948 0.046720635 -0.017222738 0.084734716 -0.031387698
-0.03939066 -0.019778794 -0.0053433594 0.049898215 0.017863324 0.09125749 0.02344514 -0.039311465
-0.059593223 -0.005182225 0.071282886 -0.037091922 0.061264846 0.12128629 0.012202327 0.039839026
0.04952485 -0.010389464 0.0061795935 -0.037620194 0.093652874 0.042465128 -0.049265128 0.00025506885
0.04011991 -0.022051081 0.07278329 0.0373036 -0.018722761 0.07298312 -0.033393286 0.02030741
-0.011236971 0.012952189 -0.025244514 0.053383276 -0.058367662 0.043682225 0.11877469 0.037787583
0.015154654 0.03797156 0.08840497 0.0118965795 0.044563305 0.056122817 -0.055966143 -0.012528999
0.05797745 0.020967934 0.06909695 -0.042906303 0.02833133 0.048280224 -0.021786025 0.005258904
00000000: 7cd9 ccbc 2511 6ebc 55f6 a33c 9d42 aabc
00000010: b8d8 0bbd 8acf 31bd 4bf5 a83d ba76 263d
00000020: ce7c 5a3d 0c59 cd3d fd63 f8bc 8760 e7bc
00000030: 0f7c 06bd ef43 53bd d2ad 19bd a4b9 bd3c
00000040: b18a 1c3d 68b3 903d 7e2d 113d 81dd 413d
00000050: 7752 b1bc 47b5 a73d 672e a7bc e1cb 953c
00000060: 3cc0 b33d 7e08 93bd 8505 cfba 04b4 453d
00000070: 68da d6ba 8303 c63d ff0d a53d 5104 623c
00000080: c4d7 e23c 0a72 8e39 0af0 113b 283e abbb
00000090: dafb bdbc 6de4 f73c 8385 56bd 1b3a 423d
000000a0: ba7e f53c 84b6 c6bc 0666 833d 9e5a 333c
000000b0: 1727 8fbd c4dc 1d3d bb0d af3c 34cd 1bbd
000000c0: b96e ea3d 54e1 94bc e10b 01bc 3da8 363d
000000d0: 75e2 433d 9cf4 c53d f6ca a03d 4f4d 393c
000000e0: 7eee 493d 7568 513c c10d 643d 6252 30bd
000000f0: 0858 163d 8bb9 993d 7960 e93b a740 973d
00000100: 824c 393d fdce 7e3c 94b5 5c3c 6b22 a23c
00000110: 3c48 8c3a 022d 5cbd 0b9c 873d c36a eabc
00000120: 478c 4e3d 2aeb 89bc 4a2a 203d 0c0b 3d3c
00000130: e5a5 833c d93b 5b3d c90c 973c 3689 15bc
00000140: 78e3 34bd 467f fd3c e3f7 2d3d a9cf 363d
00000150: 3902 9bbc 5652 c93d 9c06 01bd ef12 59bd
00000160: c0fd 823d 5394 333d 37e7 4a3d 273f ecbc
00000170: c709 8d3d 0b7f c83c be85 983d c9e5 51bc
00000180: eb40 0dbc 9fcc 09bd cc63 85bd 2584 873d
00000190: 7c48 593d 2bfe 363d 1694 efbc 5f21 6c3b
000001a0: 6422 85bc 9bf6 2ebc d69f 7c3d c45e db3c
000001b0: 2609 d2b9 52e1 f7bc 8c15 d63d 3459 08bd
000001c0: 8576 fdbb cb04 fbbc 7e09 edbc a0ff 2dbb
000001d0: cd1e 933d 2691 883d 2e3d 8b3c a9a9 14bd
000001e0: 53a3 1d3b 7c83 953c fd82 573d 272a 2dbd
000001f0: f543 a03c 7c7a 0e3d b914 7b3d 13ab 1bbd
00000200: ba11 dd3c aa48 bb3d aee8 bdbc 1dff a8bc
00000210: e796 863c 9215 bfbd 2201 6b3d 3fd8 833c
00000220: 4530 213d 3eda 31bc 8783 163d 62ad eabb
00000230: ce67 093d 91f3 15bc 9400 cfbc c96c 13bd
00000240: b925 2abd a9b3 c33c a2ec dfbc 8826 a1bc
00000250: 6024 b9bc 1705 503d 9cb9 2fba 72f3 3c3b
00000260: aa5e 653b 0a0b 433d be16 863d 84a9 a63b
00000270: b331 babc a17c b23d b06f a8bd a821 113c
00000280: 0c6e 2dbd cd21 13bd 7118 2cbb ca33 1b3d
00000290: c056 ffbb a636 373c ba41 703c c080 54bd
000002a0: 59ae fc3c da2f ed3c 0566 15bd c590 6abc
000002b0: 28c3 12bc ed98 013d 2232 843d ffd9 473d
000002c0: 590c 353b 2b11 3e3d 4090 183d 1621 8f3c
000002d0: 301f 51bb 3a3d 17bd 622c 623c b4a3 1c3d
000002e0: f9f0 cdbc 1591 5ebd 6103 ff3c bc28 0b3d
000002f0: d70f fc3c 113c 5f3d 9133 6cbb 1ebc adbd
00000300: d40a 9b3c f5ce 293d 5850 b3bd cd82 c03d
00000310: 235e 3f3d b316 8dbc 6589 ad3d 6390 00bd
00000320: 1a58 21bd 2307 a2bc 5917 afbb 1262 4c3d
00000330: 1b56 923c 35e5 ba3d 0610 c03c 0f05 21bd
00000340: 0618 74bd a7cf a9bb c3fc 913d b3ed 17bd
00000350: d9f0 7a3d f264 f83d 45ec 473c 3f2e 233d
00000360: 92da 4a3d 9238 2abc 307e ca3b a217 1abd
00000370: 14cd bf3d eaef 2d3d 3bca 49bd c3ba 8539
00000380: c654 243d 78a4 b4bc 680f 953d a9cb 183d
00000390: 7a60 99bc 2d78 953d 66c7 08bd ba5b a63c
000003a0: 461b 38bc 6b35 543c 95cd cebc 6ca8 5a3d
000003b0: ee12 6fbd 22ec 323d 2540 f33d 27c7 1a3d
000003c0: 3a4b 783c 1188 1b3d aa0d b53d dfe9 423c
000003d0: 0388 363d 0ae1 653d c13c 65bd 6e46 4dbc
000003e0: c379 6d3d f2c4 ab3c b482 8d3d 85be 2fbd
000003f0: 1b17 e83c 7cc1 453d 9b78 b2bc e252 ac3b

arith.constant3 f4 [64, 1, 3, 28]
0.018318929 -0.01857735 0.004023642 -0.0015610773 -0.0012606442 0.014038664 0.0034644632 -1.2296695e-05
0.00660618 0.0011404068 0.0019997614 -0.008942875 -0.0032711283 -0.005983562 0.0016170389 0.00031247822
0.0026958843 -0.0008146283 0.002550644 0.013402039 0.0025345809 0.0020441802 -0.0016707005 0.0011072211
-0.017838292 -0.0061001987 -0.0061697736 -0.0029450885 0.018813556 -0.019938046 -0.0011580307 0.0012314485
-0.002050286 0.010382502 0.0023777764 -0.0029080713 0.008803168 0.00062204537 -0.003324131 -0.0029905508
0.0010975199 -0.004080192 -0.00053923886 0.0012573343 0.004398354 -0.0032976242 0.002789607 0.010141381
-0.00069501856 0.0025974142 0.0022746103 -0.0023246633 -0.015602977 -0.0018328652 -0.009340831 -0.00035684096
0.017238487 -0.016850265 0.0020290704 0.0043451986 0.0018187923 0.008273593 -0.00038380074 -0.0052835993
0.004554637 0.004772712 -0.001136774 -0.0070283846 -0.0020428984 -0.0018498476 -0.004977861 -0.00074100104
0.0048676003 -0.003986989 0.0044419644 0.007616494 0.0020141238 0.00038163894 -0.0035258222 0.00010377814
-0.018262295 -0.0038758738 -0.0050287927 0.0019929637 0.016257875 0.0004841557 -0.022673404 -0.010428879
-0.06927724 0.019746844 0.011689602 0.0021757148 0.026678834 -0.008157732 0.027179644 0.020081593
0.021105954 0.051435944 -0.004594947 0.0012439182 0.01765427 0.0035913268 -0.018057473 0.0062321513
0.0019512193 0.034746166 -0.010523632 -0.008938123 0.013776583 -0.014028853 -0.0149361165 0.00045328733
0.015872203 -0.00019272976 -0.0279048 -0.005674988 -0.0481076 0.020832041 0.0147566805 -0.013062691
0.008449101 -0.01057237 0.04981006 0.018786648 0.020715225 0.0458688 -0.01039605 -0.0004421803
0.03284851 -0.0034562175 -0.029914947 0.011499986 -0.0052950745 0.04654466 -0.021330051 0.007993577
0.014257252 -0.012371383 -0.0167565 0.0015977311 0.017924627 0.0094909705 -0.008013862 -0.02251593
-0.045594316 0.010280844 0.033953637 -0.013002013 0.03219076 -0.016266206 0.02410698 0.036266524
-0.0037241124 0.05802488 -0.010370864 -0.00018506158 0.027951 -0.01113153 -0.01268122 0.012559719
0.0019365256 0.020029096 -0.023975972 0.00450813 0.021199938 0.005652256 0.010936065 0.0058149295
0.017022911 -0.015859406 0.0019987265 0.004260377 0.00313155 0.0076521602 0.001444555 0.004017094
0.0028419103 0.0023719477 0.0069827205 -0.008568706 -0.0021629531 -0.0010158013 -0.0004987341 8.2756465e-05
0.0011360393 -0.0016587403 -0.0017786082 0.0011920701 -0.0014971589 0.008797068 -0.001836937 -0.0014527187
-0.0140406545 -0.0017527726 -0.0065333676 6.8618814e-05 0.01256151 -0.012179293 0.003918549 0.0033237133
0.0011021313 0.0044519897 0.0032203386 -0.0024384116 -0.0011236625 0.0005146814 0.0015909795 -0.010991955
0.001067864 -0.005393192 -0.0026315951 -0.00040693575 0.0033864074 0.00042983657 -0.007273232 0.0049965093
-0.003181537 0.007906167 0.0005701107 0.0025297266 -0.011168817 -0.0024232483 -0.008986655 -0.0005561894
0.013593482 -0.014360802 0.0037737938 4.7555903e-05 0.0033693658 0.008569041 0.0016230976 -0.002365181
0.00087667844 0.0026374825 0.002785365 -0.0057201255 -0.00088925386 -0.0008201 -0.0036633776 -0.0003267596
0.004193086 -0.0011977865 -0.005650729 0.005721979 0.0022822113 0.004674255 0.0025942705 -0.002009142
-0.013084742 -0.0008156236 -0.009800519 -0.0028929769 0.0035066742 -0.004620873 -0.0014673964 1.7870147e-05
00000000: 9411 963c 872f 98bc c1d8 833b 109d ccba
00000010: 333c a5ba 6d02 663c 0c0c 633b e74d 4eb7
00000020: a878 d83b b479 953a 6e0e 033b 2385 12bc
00000030: 6d60 56bb c211 c4bb d2f2 d33a 1ed4 a339
00000040: 6fad 303b c88c 55ba b528 273b 3a94 5b3c
00000050: 361b 263b a7f7 053b 68fb daba 2d20 913a
00000060: 9c21 92bc 2de4 c7bb d02b cabb 6302 41bb
00000070: e31e 9a3c 1d55 a3bc 10c9 97ba 8e68 a13a
00000080: 175e 06bb 5f1b 2a3c 78d4 1b3b 5795 3ebb
00000090: 2a3b 103c c210 233a aad9 59bb 1efd 43bb
000000a0: a8da 8f3a 22b3 85bb b55b 0dba 23cd a43a
000000b0: 1120 903b f41c 58bb d7d1 363b 0928 263c
000000c0: e831 36ba 6139 2a3b a111 153b 6159 18bb
000000d0: a1a3 7fbc c03c f0ba 490a 19bc 6216 bbb9
000000e0: ba37 8d3c 9109 8abc 27fa 043b 2b62 8e3b
000000f0: 8b64 ee3a f78d 073c dd38 c9b9 0b22 adbb
00000100: 103f 953b 6964 9c3b ceff 94ba 5d4e e6bb
00000110: 26e2 05bb 9676 f2ba 531d a3bb bd3f 42ba
00000120: 6480 9f3b 4aa5 82bb e68d 913b c893 f93b
00000130: 64ff 033b b616 c839 7b11 67bb 77a3 d938
00000140: cf9a 95bc 5f02 7ebb 92c8 a4bb 629c 023b
00000150: 3c2f 853c 47d6 fd39 93bd b9bc e4dd 2abc
00000160: 3ae1 8dbd 22c4 a13c bf85 3f3c 7096 0e3b
00000170: 928d da3c 02a8 05bc d8a7 de3c 2782 a43c
00000180: 65e6 ac3c 7fae 523d 3691 96bb f80a a33a
00000190: b09f 903c 775c 6b3b 44ed 93bc 1337 cc3b
000001a0: 0ec0 ff3a ff51 0e3d 506b 2cbc 3471 12bc
000001b0: 2db7 613c 46d9 65bc 9db6 74bc 32a7 ed39
000001c0: 6c06 823c 8017 4ab9 9b98 e4bc 40f5 b9bb
000001d0: 7a0c 45bd f5a7 aa3c 01c6 713c e604 56bc
000001e0: 196e 0a3c bc37 2dbc a205 4c3d 75e6 993c
000001f0: fab2 a93c ece0 3b3d 3254 2abc 6fd4 e7b9
00000200: 298c 063d b581 62bb 3110 f5bc 706a 3c3c
00000210: 4e82 adbb 9da5 3e3d 5cbc aebc 7ef7 023c
00000220: 4097 693c 57b1 4abc ed44 89bc f66a d13a
00000230: abd6 923c 0480 1b3c 934c 03bc 5473 b8bc
00000240: 1bc1 3abd fc70 283c f812 0b3d 6506 55bc
00000250: 75da 033d b540 85bc 007c c53c 358c 143d
00000260: 3d10 74bb 7fab 6d3d 8eea 29bc 170d 42b9
00000270: 7ff9 e43c 0561 36bc e4c4 4fbc 48c7 4d3c
00000280: 04d3 fd3a 0f14 a43c 4269 c4bc efb8 933b
00000290: 7eab ad3c 8f36 b93b 2e2d 333c 2a8b be3b
000002a0: a273 8b3c 96eb 81bc 11fd 023b a29a 8b3b
000002b0: b13a 4d3b f9be fa3b 3957 bd3a d4a1 833b
000002c0: 583f 3a3b ae72 1b3b 4ecf e43b c263 0cbc
000002d0: 55c0 0dbb a324 85ba 7bbd 02ba 8a8d ad38
000002e0: 27e7 943a 176a d9ba 3020 e9ba 3c3f 9c3a
000002f0: 513c c4ba 9421 103c 61c5 f0ba 2769 beba
00000300: c60a 66bc 4abd e5ba dc15 d6bb 72e7 8f38
00000310: cbce 4d3c a88b 47bc 2c67 803b a8d2 593b
00000320: 6475 903a ffe1 913b 510c 533b c2cd 1fbb
00000330: db47 93ba afeb 063a 6a88 d03a 9a17 34bc
00000340: 92f7 8b3a 60b9 b0bb d776 2cbb fe59 d5b9
00000350: 7dee 5d3b b05b e139 4b54 eebb c2b9 a33b
00000360: 5581 50bb de88 013c 7b73 153a c5c9 253b
00000370: 6afd 36bc 5ccf 1ebb c33c 13bc 3dcd 11ba
00000380: 32b7 5e3c 9249 6bbc c151 773b c376 4738
00000390: 94d0 5c3b 2a65 0c3c 1ebe d43a 2701 1bbb
000003a0: e5d0 653a 9dd9 2c3b ac8a 363b e46f bbbb
000003b0: d11c 69ba fbfb 56ba 4715 70bb ee50 abb9
000003c0: 2866 893b 0cff 9cba c029 b9bb 707f bb3b
000003d0: 2791 153b 7e2a 993b a304 2a3b cfab 03bb
000003e0: 6361 56bc 93cf 55ba 5b92 20bc 1998 3dbb
000003f0: 3bd0 653b b16a 97bb a755 c0ba d9e7 9537

arith.constant7 f4 [4, 64]
-0.4041446 0.029326124 0.25620893 -0.14473246 0.31012928 0.20823751 -0.14754075 0.15379685
-0.30257824 0.1860409 0.25594592 0.27336118 -0.02083342 0.09365527 -0.082322836 0.2831488
-0.0061030886 -0.20703752 -0.10671049 -0.3302539 -0.20274846 0.22007373 -0.057159267 -0.03135316
-0.18522717 -0.101159714 -0.0049196477 0.060732286 0.091908045 0.08132457 0.20729257 -0.011665572
-0.068803154 0.13052878 -0.25626236 0.22572795 -0.17331083 -0.24140102 0.122640245 -0.32337573
-0.17745928 -0.07324813 -0.15826164 0.08156497 -0.17400596 0.042313274 -0.25915512 0.20333627
0.27437815 -0.26929507 0.14885229 -0.1110347 -0.10610009 0.2471673 0.11502832 -0.10594131
-0.17769481 0.1495084 -0.096777625 -0.026102465 -0.22278583 -0.08402088 0.2654658 -0.14702444
-0.012646545 -0.280217 -0.08734846 -0.27094573 0.18721858 -0.25004405 0.2700428 0.14554138
0.25110942 -0.073006354 -0.15527923 0.2116213 0.21830975 0.059463345 0.047918998 0.23660232
-0.22778475 -0.21637776 -0.24836056 -0.20648234 -0.15457982 0.1635991 0.29910663 -0.21061122
0.08010178 -0.19396815 -0.28006083 -0.3581038 -0.041928966 0.24872442 0.35474175 -0.27749765
0.35240886 -0.2567061 0.27397087 -0.27857706 -0.24077845 -0.15083092 -0.24437812 -0.047909513
-0.08276819 0.3099457 -0.28146532 -0.2743719 0.21579848 -0.17891046 0.018980844 0.032144815
0.3086454 0.15528896 -0.13440563 0.28185192 0.05108686 -0.23310995 -0.24902056 0.26094472
0.2712585 -0.34402806 -0.11407401 -0.122980066 0.023086522 0.051840324 -0.045500662 -0.24568324
-0.191228 -0.08980503 0.23890075 -0.10605888 -0.07846366 0.07101735 -0.11298623 -0.33094713
-0.23084052 -0.24527185 -0.019112132 -0.23971146 -0.10666303 -0.26986742 0.24690434 0.2538231
-0.28557402 0.22737527 -0.1868401 -0.0033096266 -0.029088346 -0.24110866 0.14245124 0.23405711
-0.15141235 0.19138782 -0.032056563 0.07197718 0.034548525 0.27794588 0.13660812 -0.04877192
0.18783328 0.11093725 -0.18070683 -0.13651477 0.03343358 0.16988023 0.120415926 0.0038519772
-0.23258919 -0.25034767 -0.27593946 0.023750145 -0.18705456 0.07704133 -0.17625524 0.18884386
0.23620056 0.059905488 -0.124600925 -0.2233803 0.20512141 0.22010823 -0.1617829 -0.13691325
0.24747942 0.125736 -0.071277566 0.16455507 0.114557475 -0.18208528 0.033098485 0.12509766
-0.30854228 -0.20107973 -0.19117577 -0.34927568 -0.07848007 0.047593534 0.17409825 0.24906968
0.17490359 0.10172049 0.18758908 -0.24980295 -0.23904231 -0.13918063 0.10754342 -0.26774535
-0.22262079 0.11188307 0.22935806 -0.28803468 0.15641783 0.20203777 -0.07721387 0.005538501
0.22311245 -0.008219641 -0.21316837 -0.03170671 0.31947356 -0.26384416 -0.28697622 0.25252903
0.074959844 -0.19821705 0.24679838 0.034825988 -0.009677325 0.20326193 0.04442756 -0.14163065
0.16181296 0.05656056 -0.017685454 -0.17944317 0.2172664 -0.28535306 -0.28089416 -0.11280441
-0.36528042 -0.29102838 -0.16738196 -0.3321243 0.01160164 -0.23251227 0.09730564 -0.21397252
-0.06676078 -0.24579881 0.26725385 0.19685063 -0.3043104 0.16178875 0.2729056 -0.27875546
00000000: 0aec cebe 573d f03c d12d 833e bf34 14be
00000010: 44c9 9e3e 373c 553e ec14 17be ec7c 1d3e
00000020: 89eb 9abe 8181 3e3e 580b 833e fff5 8b3e
00000030: d9aa aabc 56ce bf3d e098 a8bd e1f8 903e
00000040: 6bfc c7bb a501 54be 088b dabd 0a17 a9be
00000050: 4b9d 4fbe 025b 613e d61f 6abd 2c6c 00bd
00000060: 31ac 3dbe d32c cfbd ff34 a1bb 6bc2 783d
00000070: 493a bc3d 7f8d a63d 8144 543e f520 3fbc
00000080: abe8 8cbd 56a9 053e d234 83be 3a25 673e
00000090: 6578 31be d431 77be cf2a fb3d 8191 a5be
000000a0: e3b7 35be 1e03 96bd 570f 22be 890b a73d
000000b0: 9e2e 32be af50 2d3d fbaf 84be 6237 503e
000000c0: 4b7b 8c3e 0be1 89be bc6c 183e 2966 e3bd
000000d0: 014b d9bd 6d19 7d3e f893 eb3d c2f7 d8bd
000000e0: a1f5 35be bb18 193e 5933 c6bd d6d4 d5bc
000000f0: f821 64be 2413 acbd 22eb 873e 938d 16be
00000100: 7433 4fbc 9a78 8fbe c0e3 b2bd 66b9 8abe
00000110: 3ab6 3f3e c605 80be 0d43 8a3e cd08 153e
00000120: 6a91 803e 5b84 95bd 8501 1fbe 41b3 583e
00000130: 978c 5f3e d68f 733d b646 443d e147 723e
00000140: 6840 69be 2292 5dbe 3b52 7ebe 1b70 53be
00000150: 2c4a 1ebe 8686 273e 8124 993e 78aa 57be
00000160: 670c a43d 969f 46be 2264 8fbe 6259 b7be
00000170: b5bd 2bbd 9db1 7e3e b6a0 b53e 2c14 8ebe
00000180: ef6e b43e fb6e 83be e945 8c3e a7a1 8ebe
00000190: a08e 76be 6c73 1abe 423e 7abe c43c 44bd
000001a0: 5e82 a9bd 34b1 9e3e 391c 90be 797a 8cbe
000001b0: 47fa 5c3e 4e34 37be b77d 9b3c 48aa 033d
000001c0: c506 9e3e 1204 1f3e a1a1 09be e54e 903e
000001d0: 7540 513d 60b4 6ebe 3fff 7ebe 8c9a 853e
000001e0: 65e2 8a3e 7224 b0be a29f e9bd f9dc fbbd
000001f0: f21f bd3c 8556 543d e75e 3abd 6394 7bbe
00000200: 46d1 43be b3eb b7bd 66a2 743e 6635 d9bd
00000210: 8eb1 a0bd 8b71 913d 5365 e7bd e771 a9be
00000220: 7561 6cbe 8b28 7bbe 0c91 9cbc ec76 75be
00000230: 2672 dabd 102c 8abe 7ed4 7c3e 1af5 813e
00000240: c236 92be 10d5 683e 0353 3fbe 52e6 58bb
00000250: af4a eebc 30e5 76be bdde 113e abac 6f3e
00000260: d70b 1bbe 2bfb 433e be4d 03bd c668 933d
00000270: c182 0d3d ec4e 8e3e 00e3 0b3e 11c5 47bd
00000280: 5e57 403e 1233 e33d 360b 39be 87ca 0bbe
00000290: a6f1 083d 15f5 2d3e a09c f63d 7471 7c3b
000002a0: dc2b 6ebe 922d 80be f047 8dbe aa8f c23c
000002b0: 3b8b 3fbe d8c7 9d3d 417c 34be 4960 413e
000002c0: 8fde 713e 755f 753d c52e ffbd cebd 64be
000002d0: 590b 523e 0d64 613e 6baa 25be fd32 0cbe
000002e0: 3f6b 7d3e f0c0 003e f9f9 91bd 2081 283e
000002f0: 1c9d ea3d 9074 3abe 4792 073d 9a19 003e
00000300: 41f9 9dbe d8e7 4dbe 95c3 43be 43d4 b2be
00000310: 29ba a0bd 70f1 423d d046 323e 1f0c 7f3e
00000320: ed19 333e d552 d03d 5a17 403e 58cc 7fbe
00000330: 82c7 74be 5e85 0ebe b93f dc3d eb15 89be
00000340: b4f6 63be f322 e53d d7dc 6a3e 4879 93be
00000350: ff2b 203e fde2 4e3e 4e22 9ebd 507c b53b
00000360: 9777 643e acab 06bc cf48 5abe e5de 01bd
00000370: 0a92 a33e 9516 87be 8cee 92be 7c4b 813e
00000380: 8c84 993d 69f9 4abe b7b8 7c3e b2a5 0e3d
00000390: a58d 1ebc e523 503e acf9 353d a007 11be
000003a0: 4cb2 253e 0cac 673d 16e1 90bc f3bf 37be
000003b0: 157b 5e3e cc19 92be 5cd1 8fbe 0006 e7bd
000003c0: 0906 bbbe ac01 95be 2d66 2bbe 320c aabe
000003d0: ce14 3e3c b217 6ebe 2e48 c73d 9d1b 5bbe
000003e0: e0b9 88bd afb2 7bbe 7fd5 883e 3693 493e
000003f0: 93ce 9bbe f3ab 253e 48ba 8b3e 09b9 8ebe

arith.constant8 f4 [64, 128]
-0.0052474653 0.07479989 0.2679072 -0.0030993505 -0.015547981 -0.047076415 0.12879764 -0.11508754
-0.18478855 0.04886724 -0.08529713 0.05735371 -0.06802309 0.059179068 -0.13076055 0.11896728
0.04219215 0.12217538 -0.11742173 0.17401305 -0.039289404 0.084425405 0.16515145 -0.13385618
-0.13046196 0.060260035 -0.032303393 0.020443495 -0.181494 0.07333797 0.06141616 -0.044857092
-0.10819902 0.021543587 -0.14259556 -0.13954873 0.29118422 0.15999278 0.074156165 -0.0312225
-0.10146581 -0.048713654 0.016385017 0.0646499 -0.13762063 -0.28969696 0.08099238 -0.20650937
0.0403514 -0.18236805 0.06694028 -0.028387511 0.31067264 0.13802099 -0.21052913 0.09240439
-0.14714482 0.17181991 -0.007589193 -0.097824804 0.20384179 0.28949675 -0.004077391 0.011143569
-0.011804113 -0.016908934 -0.19666737 0.0077363057 0.008774404 -0.010449707 0.066232026 0.011991879
0.13923016 -0.010930805 -0.09687368 0.14976217 0.16819827 -0.07320517 0.11566024 -0.060905352
0.009823506 0.11789565 -0.079442576 0.2865955 -0.09492539 -0.08191043 0.12242783 -0.03548863
0.23728645 0.11904569 -0.25849333 -0.08041987 -0.000902725 0.08740676 0.01039316 -0.055019215
0.17498948 0.17474127 0.05801218 -0.07425262 -0.12563212 0.020433148 0.074060075 0.010680937
-0.09054176 -0.199808 0.09134956 -0.06660948 -0.21352066 -0.17173278 -0.12245818 0.16562104
0.23135415 0.04607127 0.1323677 -0.10607576 0.13779888 0.13659695 0.020067798 -0.08828886
-0.1420106 -0.07555156 -0.19094837 0.06509308 -0.112431236 0.03520988 -0.21358262 0.17176062
0.11972682 0.12777121 0.07242824 0.058574114 0.1605124 -0.1960468 -0.123562515 -0.010988735
-0.023509866 0.070401765 0.13669215 -0.031791817 0.0323944 0.0030464316 0.078430526 -0.14700699
0.068355285 -0.15344612 0.017227871 -0.024425104 0.04702411 0.11305862 0.06838486 -0.12207733
0.068485044 0.10810103 0.11926411 0.08510221 -0.05128566 0.12945189 0.12729211 0.2390888
0.20257103 0.10123372 -0.025184263 -0.03474285 0.06405256 0.18709143 -0.1502599 -0.039153382
0.13273223 -0.13122535 -0.14827064 -0.012092203 0.045837317 0.0761269 -0.041487243 -0.0061103776
-0.06615797 -0.040342327 -0.0770895 0.13314013 -0.08901059 -0.009943195 0.06706261 0.16049181
-0.06373211 -0.02791498 0.11989939 0.0129789915 -0.09827912 0.14885086 0.15923437 0.11057145
-0.034662817 -0.056281358 -0.17961071 -0.09513158 -0.037945107 0.09969195 -0.000262614 0.15391736
0.13904898 0.20272598 -0.04155571 0.011909876 0.07049676 -0.08733913 -0.06443433 0.11993226
-0.18662392 -0.046202112 -0.07636794 -0.16079323 -0.13640542 0.05035672 0.017822912 0.0059111333
0.1606233 -0.040919162 -0.1971483 -0.15360771 -0.07061599 -0.118845604 -0.12187527 0.0343783
0.090602174 0.10596071 -0.012089469 -0.14419824 0.15831992 -0.10574806 -0.12973903 -0.18851411
-0.11262321 -0.037832987 0.12122958 0.032254685 -0.18280706 -0.07099514 -0.030296607 0.090602875
0.19103935 -0.15475972 0.043357253 -0.16957974 -0.07736033 0.13494997 0.14660975 -0.09676218
0.06894258 -0.12870498 0.100505605 0.09939699 0.10091713 -0.058754567 -0.056426276 0.062865205
00000000: eef2 abbb af30 993d 222b 893e 791e 4bbb
00000010: f5bc 7ebc 33d3 40bd 87e3 033e 04b3 ebbd
00000020: 3639 3dbe 0429 483d 43b0 aebd b9eb 6a3d
00000030: b14f 8bbd c065 723d 18e6 05be 1ea5 f33d
00000040: add1 2c3d 1637 fa3d ce7a f0bd 7a30 323e
00000050: eded 20bd 3ae7 ac3d 761d 293e 9811 09be
00000060: d297 05be 3ad3 763d 9050 04bd 1e79 a73c
00000070: 90d9 39be 3832 963d 838f 7b3d 12bc 37bd
00000080: 7397 ddbd 2d7c b03c 9204 12be dde5 0ebe
00000090: 1916 953e 26d5 233e 30df 973d 54c6 ffbc
000000a0: 4ecd cfbd f887 47bd df39 863c 2b67 843d
000000b0: 6cec 0cbe 2953 94be 55df a53d 3177 53be
000000c0: 8247 253d b1be 3abe fc17 893d ed8c e8bc
000000d0: 7c10 9f3e 6055 0d3e f394 57be 833e bd3d
000000e0: 22ad 16be 8ff1 2f3e c4ae f8bb 5f58 c8bd
000000f0: e7bb 503e eb38 943e a29b 85bb 8493 363c
00000100: 0a66 41bc 9b84 8abc 2c63 49be d680 fd3b
00000110: 85c2 0f3c 3f35 2bbc a8a4 873d 9679 443c
00000120: 5a92 0e3e 1e17 33bc b565 c6bd 415b 193e
00000130: 2b3c 2c3e 98ec 95bd 47df ec3d e477 79bd
00000140: c5f2 203c 4673 f13d cab2 a2bd a5bc 923e
00000150: 3e68 c2bd a8c0 a7bd 71bb fa3d 875c 11bd
00000160: 38fb 723e 3ace f33d 3d59 84be 2cb3 a4bd
00000170: d9a4 6cba 5102 b33d 1348 2a3c d45b 61bd
00000180: 7130 333e 60ef 323e 2e9e 6d3d c211 98bd
00000190: b5a5 00be 6b63 a73c cfac 973d 19ff 2e3c
000001a0: f56d b9bd 789a 4cbe 7a15 bb3d 8d6a 88bd
000001b0: 29a5 5abe b8da 2fbe 5bcb fabd 9098 293e
000001c0: 1ae8 6c3e 3ab5 3c3d 668b 073e 403e d9bd
000001d0: 261b 0d3e 12e0 0b3e 3965 a43c cad0 b4bd
000001e0: 3a6b 11be c7ba 9abd f887 43be 854f 853d
000001f0: 5942 e6bd 3c38 103d 67b5 5abe 04e2 2f3e
00000200: 5633 f53d 75d6 023e 4255 943d 69eb 6f3d
00000210: 5d5d 243e 7ec0 48be 580e fdbd 180a 34bc
00000220: c397 c0bc cd2e 903d 07f9 0b3e 2338 02bd
00000230: feaf 043d a4a6 473b 2fa0 a03d 0089 16be
00000240: dbfd 8b3d fb20 1dbe 7721 8d3c 2817 c8bc
00000250: 5a9c 403d 478b e73d 5d0d 8c3d ae03 fabd
00000260: e341 8c3d 1364 dd3d be40 f43d 114a ae3d
00000270: ea10 52bd 098f 043e dd58 023e b2d3 743e
00000280: c86e 4f3e a053 cf3d 3a4f cebc 854e 0ebd
00000290: fd2d 833d e594 3f3e bbdd 19be 4c5f 20bd
000002a0: f5ea 073e f05f 06be 42d4 17be 601e 46bc
000002b0: e9bf 3b3d 6ce8 9b3d 87ee 29bd 9039 c8bb
000002c0: d47d 87bd ff3d 25bd 1ae1 9dbd e355 083e
000002d0: 2f4b b6bd c8e8 22bc 1f58 893d f757 243e
000002e0: fb85 82bd f5ad e4bc d08d f53d d6a5 543c
000002f0: 9046 c9bd 5c6c 183e 560e 233e 4973 e23d
00000300: 99fa 0dbd 4887 66bd dfeb 37be 59d4 c2bd
00000310: 546c 1bbd 4b2b cc3d 74af 89b9 839c 1d3e
00000320: db62 0e3e 6697 4f3e 5236 2abd a421 433c
00000330: 9b60 903d dcde b2bd 25f6 83bd 0b9f f53d
00000340: 571a 3fbe 6d3e 3dbd cb66 9cbd fba6 24be
00000350: ddad 0bbe d942 4e3d 5b01 923c 2eb2 c13b
00000360: 6f7a 243e da9a 27bd 3ee1 49be 574b 1dbe
00000370: 1e9f 90bd 5365 f3bd be99 f9bd 43d0 0c3d
00000380: a28d b93d ee01 d93d e812 46bc b4a8 13be
00000390: 9e1e 223e 7092 d8bd 4fda 04be d809 41be
000003a0: ffa6 e6bd c3f6 1abd 3747 f83d 7d1d 043d
000003b0: c631 3bbe e665 91bd 9730 f8bc 008e b93d
000003c0: d29f 433e 5579 1ebe 6097 313d 50a6 2dbe
000003d0: 186f 9ebd 5330 0a3e de20 163e 402b c6bd
000003e0: c431 8d3d 3dcb 03be e2d5 cd3d a690 cb3d
000003f0: a4ad ce3d a1a8 70bd 3d1f 67bd 79bf 803d

arith.constant9 f4 [1, 128]
0.3079198 0.19477287 0.092747286 0.023621293 0.027975481 -0.012826074 0.0063421633 0.2074084
-0.04208007 0.062099334 0.1370437 0.14087272 -0.15209979 -0.110232085 0.10796586 -0.17191018
0.05952179 -0.1774873 0.12164448 0.14141303 -0.18819115 -0.00813325 -0.11984268 -0.15652108
0.17570095 0.0095984265 -0.07613808 -0.20722792 0.066748776 0.108631305 -0.20967886 0.01811214
0.026676642 -0.25655407 0.1504233 -0.046923503 0.15299258 0.16067424 -0.0108064525 -0.14610161
-0.008502145 0.03048938 0.086440146 -0.2519697 -0.054248147 0.111599125 -0.1443471 -0.16417703
-0.14464152 0.16003494 0.04342488 -0.28066632 -0.02938757 0.0845465 -0.25668842 -0.05835084
0.031043278 0.14881061 -0.17822693 0.08526824 0.10861853 -0.038091805 0.08208957 0.03661817
0.060178243 -0.051413067 -0.058258057 -0.12224179 -0.04089488 -0.24978454 0.20608099 -0.020998213
0.16301303 -0.049909543 -0.17941257 0.15938781 0.040933028 0.053982176 0.0013798471 -0.023726638
0.11541643 -0.122815244 -0.050370637 -0.009009137 -0.16289778 0.07370815 -0.15353729 0.05633247
0.08045619 -0.0003280306 0.21545579 0.14692155 0.108686775 -0.18326205 0.24775003 -0.054330662
0.03689607 0.22144175 -0.25868055 -0.114812165 -0.11965724 -0.01588946 -0.1688816 0.08975566
0.1687759 0.187446 0.042810865 0.04389178 -0.065548845 -0.08497954 -0.09991372 -0.08379717
-0.022410141 0.16210495 0.29395416 0.076179266 0.011684883 0.13825312 0.033386108 0.14701763
-0.10969657 -0.11405281 0.04914563 -0.22318405 -0.223537 -0.1661868 0.17447294 -0.27631763
00000000: aaa7 9d3e 8a72 473e 4af2 bd3d 7181 c13c
00000010: d62c e53c 7424 52bc ecd1 cf3b de62 543e
00000020: 275c 2cbd df5b 7e3d 2f55 0c3e f040 103e
00000030: 0cc0 1bbe 5cc1 e1bd 341d dd3d 3909 30be
00000040: 1fcd 733d 3bbf 35be be20 f93d 94ce 103e
00000050: 2eb5 40be 5341 05bc 1470 f5bd 1047 20be
00000060: f3ea 333e b842 1d3c 48ee 9bbd 8e33 54be
00000070: 95b3 883d 177a de3d 0eb6 56be e95f 943c
00000080: f988 da3c 0e5b 83be 9108 1a3e dc32 40bd
00000090: 16aa 1c3e ca87 243e 8c0d 31bc a99b 15be
000000a0: 954c 0bbc ddc4 f93c 8807 b13d 2c02 81be
000000b0: 4e33 5ebd 158e e43d bacf 13be 061e 28be
000000c0: e81c 14be 33e0 233e 49de 313d 7fb3 8fbe
000000d0: 34be f0bc b726 ad3d aa6c 83be 4a01 6fbd
000000e0: 794e fe3c cf61 183e 1f81 36be 1da1 ae3d
000000f0: 6473 de3d 2706 1cbd 941e a83d effc 153d
00000100: 767d 763d 8296 52bd 00a0 6ebd e759 fabd
00000110: 6481 27bd 85c7 7fbe e506 533e 7204 acbc
00000120: e3ec 263e f36d 4cbd eeb7 37be 8f36 233e
00000130: 64a9 273d 6a1c 5d3d fcdb b43a 5e5e c2bc
00000140: 735f ec3d 8f86 fbbd 7151 4ebd 0f9b 13bc
00000150: adce 26be 4cf4 963d e138 1dbe e0bc 663d
00000160: 37c6 a43d 86fb abb9 71a0 5c3e 9a72 163e
00000170: 2c97 de3d 0ca9 3bbe 2fb2 7d3e d489 5ebd
00000180: 5520 173d a0c1 623e c771 84be a422 ebbd
00000190: db0e f5bd 9d2a 82bc 4cef 2cbe d1d1 b73d
000001a0: 97d3 2c3e d8f1 3f3e 725a 2f3d dec7 333d
000001b0: 793e 86bd c109 aebd 909f ccbd da9d abbd
000001c0: 7995 b7bc d7fe 253e 2981 963e e003 9c3d
000001d0: f471 3f3c 3a92 0d3e dfbf 083d ca8b 163e
000001e0: 98a8 e0bd 8594 e9bd ee4c 493d 5c8a 64be
000001f0: e2e6 64be df2c 2abe 09a9 323e 8179 8dbe

arith.constant10 f4 [256, 128]
-0.02004475 -0.12603085 0.037283134 0.07822934 -0.1188703 -0.100607425 0.06714084 -0.0751928
-0.11716505 -0.012953486 -0.019591916 0.016469393 0.07489957 -0.056710854 0.046375893 0.04527603
0.11961194 -0.19425242 0.19146281 0.0017263502 -0.021459665 -0.09919828 -0.15003122 0.06220386
0.037358515 -0.022948047 0.0025138818 0.048392367 -0.05358415 -0.1715513 -0.16265641 -0.08248994
-0.15758437 0.022558445 0.032007065 -0.14902513 0.08370536 -0.1655789 0.07437405 0.06362538
0.10046692 0.11362487 0.09944967 -0.032694664 -0.09135114 -0.072691336 -0.15406932 -0.036957067
-0.13668357 -0.06946477 0.14910154 0.058435794 0.0420558 0.0008302616 0.052757766 0.03063985
-0.14009248 -0.1772912 -0.11975323 -0.0049319267 -0.111751266 -0.099986814 0.025085662 -0.15573752
0.09031063 -0.021309583 0.073047034 0.036560312 -0.057412636 -0.012237907 -0.15257497 -0.004201553
-0.0018994565 -0.19428225 -0.20846628 0.019738337 -0.04205612 0.038540553 -0.10632253 -0.067103714
-0.023145758 0.041188158 -0.0862053 -0.05611898 -0.0881465 -0.19813041 -0.0781746 -0.06632846
0.16845176 0.033158727 -0.008875083 -0.11823695 -0.1332002 0.07467721 -0.037774637 -0.16989705
-0.00050616224 -0.16494119 0.020291165 -0.17239085 0.08711678 -0.15044953 -0.13194811 0.15114102
0.0019257826 -0.023832057 -0.021110633 -0.024896635 0.14075299 0.12506324 -0.1405915 0.082303315
-0.018945837 -0.073614374 -0.0025180469 0.011121926 0.041185837 -0.07568644 0.0861326 0.12405503
-0.056264687 0.07401577 -0.005179436 0.06804694 -0.0024767583 0.12431494 -0.21212079 0.057580378
-0.06286053 0.094100036 -0.037766233 0.11680631 0.043145493 -0.039650522 0.07086372 -0.003528302
0.14819492 -0.025454966 0.05404992 -0.03771988 0.004313068 -0.12536454 -0.049844634 -0.03365361
-0.08577886 0.15886757 -0.13054647 0.19173083 -0.0013505974 -0.00040325933 0.046930585 0.07197956
0.07724383 0.07244895 -0.07917572 0.0867062 0.17977126 -0.16451068 0.08311359 0.05344485
0.09942406 0.031350657 0.083914176 0.09236689 0.038418636 0.17664948 -0.03718904 0.044229876
0.060113557 -0.046248827 0.002090026 0.022040581 -0.12328981 0.058812827 0.008876694 -0.02101133
0.0034938839 0.03442833 0.10381868 0.0662497 0.058622234 0.1097899 0.007740867 0.028078662
-0.17398639 0.049978517 -0.08002711 -0.090595804 -0.04602661 0.13034332 0.08186143 0.044887234
-0.08335373 0.12333636 0.047804393 -0.10840672 0.15178138 0.038898576 0.072542734 0.083257824
-0.018735435 0.123106375 0.08732065 -0.008804324 0.021771224 0.122786365 0.21002954 0.10948555
0.16031395 -0.0435563 0.046600387 0.01941222 0.031031005 0.023511069 0.08763493 0.072973475
-0.06149522 0.041010648 -0.03126499 -0.18707128 0.12185651 0.13238408 -0.07224566 0.044580482
0.0076583875 -0.06184443 -0.06948711 0.20864588 0.1259574 0.16694836 0.22139075 0.106205806
0.0642895 0.08276847 0.11427072 -0.06631288 -0.07287244 0.0526263 0.033077367 -0.06746542
-0.00597585 -0.07447462 -0.06843881 0.00937439 0.029234828 -0.027192948 0.0038054963 0.07375775
0.057519447 0.17359747 -0.0022314447 0.057995196 -0.035171997 0.090661936 0.047650024 -0.05321196
00000000: e334 a4bc 3b0e 01be 33b6 183d b436 a03d
00000010: 4672 f3bd 440b cebd 2381 893d affe 99bd
00000020: 3bf4 efbd dc3a 54bc 3a7f a0bc d2ea 863c
00000030: f264 993d a449 68bd a6f4 3d3d 5c73 393d
00000040: 1bf7 f43d 1bea 46be d40e 443e b346 e23a
00000050: 2ecc afbc 7828 cbbd c9a1 19be 7ac9 7e3d
00000060: 3e05 193d 8bfd bbbc f0bf 243b 1337 463d
00000070: 0e7b 5bbd 25ab 2fbe 678f 26be 7cf0 a8bd
00000080: cc5d 21be 7dcc b83c d719 033d 0b9a 18be
00000090: b76d ab3d 848d 29be 6c51 983d 064e 823d
000000a0: 9ac1 cd3d 28b4 e83d 45ac cb3d d7ea 05bd
000000b0: 4e16 bbbd 32df 94bd 59c4 1dbe 4b60 17bd
000000c0: c7f6 0bbe 8c43 8ebd 13ae 183e 5f5a 6f3d
000000d0: b442 2c3d eaa5 593a 8718 583d 6c00 fb3c
000000e0: 6774 0fbe d38b 35be 2e41 f5bd 009c a1bb
000000f0: d9dd e4bd e3c5 ccbd 7280 cd3c a879 1fbe
00000100: c8f4 b83d 6f91 aebc af99 953d 44c0 153d
00000110: 8329 6bbd 8181 48bc 9d3c 1cbe 2ead 89bb
00000120: 2ff7 f8ba edf1 46be 2f78 55be 4bb2 a13c
00000130: 0a43 2cbd b3dc 1d3d a0bf d9bd ac6d 89bd
00000140: 2c9c bdbc eab4 283d 688c b0bd 04dd 65bd
00000150: 2786 b4bd b3e2 4abe 011a a0bd 37d7 87bd
00000160: 9e7e 2c3e 72d1 073d cc68 11bc 3726 f2bd
00000170: a265 08be 5df0 983d 94b9 1abd 7ef9 2dbe
00000180: f9af 04ba 58e6 28be a839 a63c 3a87 30be
00000190: 486a b23d 710f 1abe 681d 07be b6c4 1a3e
000001a0: 8b6a fc3a 723b c3bc 35f0 acbc 07f4 cbbc
000001b0: 8d21 103e 9410 003e 38f7 0fbe a48e a83d
000001c0: 4d34 9bbc 22c3 96bd d105 25bb bd38 363c
000001d0: 7bb2 283d 7e01 9bbd 4a66 b03d 9010 fe3d
000001e0: cd75 66bd 9495 973d 42b8 a9bb 325c 8b3d
000001f0: 1c51 22bb d598 fe3d 3136 59be 67d9 6b3d
00000200: 06bd 80bd 85b7 c03d c4b0 1abd 2638 ef3d
00000210: 54b9 303d 9668 22bd ff20 913d 163b 67bb
00000220: 69c0 173e ef86 d0bc 7363 5d3d 2980 1abd
00000230: a354 8d3b 905f 00be e329 4cbd 5ed8 09bd
00000240: d4ac afbd 2eae 223e f9ad 05be 1655 443e
00000250: 8706 b1ba 8d6c d3b9 493a 403d 056a 933d
00000260: 0332 9e3d 1d60 943d e126 a2bd 0593 b13d
00000270: f515 383e 7d75 28be 7537 aa3d fde8 5a3d
00000280: d79e cb3d 8c69 003d 32db ab3d da2a bd3d
00000290: dc5c 1d3d 9ae3 343e 8953 18bd 632a 353d
000002a0: a239 763d 696f 3dbd d1f8 083b 738e b43c
000002b0: 5e7f fcbd b8e5 703d 8e6f 113c f41f acbc
000002c0: a5f9 643b b804 0d3d e39e d43d ecad 873d
000002d0: de1d 703d 87d9 e03d 19a7 fd3b 3905 e63c
000002e0: 7d29 32be 46b6 4c3d 41e5 a3bd 4b8a b9bd
000002f0: 6686 3cbd b878 053e f7a6 a73d addb 373d
00000300: 5cb5 aabd c697 fc3d 8ace 433d 5804 debd
00000310: 946c 1b3e 1d54 1f3d 4991 943d 1483 aa3d
00000320: 0e7b 99bc 321f fc3d 2bd5 b23d 0340 10bc
00000330: 9159 b23c 6b77 fb3d fc11 573e f639 e03d
00000340: 5729 243e 1768 32bd 0ce0 3e3d 6006 9f3c
00000350: bc34 fe3c 499a c03c f179 b33d 1e73 953d
00000360: 69e2 7bbd c8fa 273d b80f 00bd 9d8f 3fbe
00000370: e88f f93d b18f 073e 88f5 93bd 069a 363d
00000380: 36f3 fa3b 9650 7dbd 424f 8ebd 44a7 553e
00000390: fafa 003e 83f4 2a3e 42b4 623e 6e82 d93d
000003a0: 37aa 833d 8482 a93d c406 ea3d 0ccf 87bd
000003b0: 253e 95bd ad8e 573d 227c 073d 4f2b 8abd
000003c0: 10d1 c3bb 2686 98bd a629 8cbd 0b97 193c
000003d0: e17d ef3c bfc3 debc a265 793b 4e0e 973d
000003e0: 8399 6b3d 89c3 313e 6e3d 12bb 5f8c 6d3d
000003f0: 8310 10bd f7ac b93d ac2c 433d c9f4 59bd

arith.constant11 f4 [256, 64]
-0.13043594 0.22651055 -0.0082961805 -0.048978902 0.07471655 -0.04991924 0.05433306 -0.027346965
-0.028457256 0.05106005 -0.04163019 0.15050872 0.064179644 0.07758352 0.034729887 0.124908686
-0.02610823 -0.20316948 -0.057265636 0.13604464 0.12820224 0.00859975 -0.0565467 0.19618034
0.1900058 0.008506657 0.05511562 0.04257869 0.002807727 0.0077982717 0.18118685 0.07322049
0.08403586 -0.18919663 -0.054112017 -0.10883237 -0.1525992 0.21757886 -0.11184419 -0.038294118
-0.10023148 -0.1424041 0.009998495 0.19297293 0.20371269 0.07881162 0.09570388 -0.054551452
0.0943583 0.09308719 -0.037154585 0.09048391 0.09971272 0.111144334 0.022688733 0.07396941
-0.04150646 -0.055642232 0.22065984 -0.10329134 0.19053797 0.055871498 -0.10084673 0.0094426125
-0.1043596 0.05850481 -0.071917176 0.000936169 -0.06248153 0.050905444 -0.073599756 -0.00018880516
0.19063924 0.101292 0.10308257 -0.12024017 0.061544072 0.12885028 -0.03392343 0.08444886
-0.053208057 0.08730078 0.021521544 0.14594631 -0.061961465 -0.013372611 0.2767279 0.14578144
-0.0811578 -0.060672 0.013968614 0.17630222 -0.017890593 -0.04694777 0.103883594 -0.15040752
-0.0986464 0.086359546 -0.0031967063 0.13918254 -0.08073698 -0.16783313 0.1468318 0.050173398
-0.007215815 -0.002920939 -0.06498601 0.075153 -0.12253491 -0.2198265 -0.04719385 -0.03849177
-0.0924424 -0.21069501 -0.14252102 0.13330056 0.000487497 0.0771539 0.08856853 -0.14343667
0.14262252 -0.09863011 0.0016373752 -0.14877309 -0.22209248 0.0276079 -0.052842744 -0.06684589
-0.08786698 -0.07177042 -0.0074216444 -0.024452934 -0.13782069 0.057835296 -0.03875546 0.030907186
-0.016558716 -0.033253048 -0.040459234 -0.17180638 -0.13971105 0.08725655 0.047017165 -0.009735547
-0.014962075 0.06351587 -0.09054129 0.027295627 0.14602417 0.004412199 -0.24050471 0.074689664
-0.010720846 0.0727465 -0.028751135 -0.023188569 -0.071130015 -0.044719834 0.022369042 0.055355836
0.09439141 -0.04571829 0.1305326 -0.16004026 0.057747606 0.030903907 0.04073821 -0.0608216
0.05644017 0.050833344 -0.052173648 -0.12961186 -0.11330381 -0.09913792 0.010004948 -0.0060453573
0.04981607 -0.122922815 0.14414428 -0.020960199 0.013411644 -0.05694954 -0.07406299 0.012394804
0.019768141 -0.01305328 -0.021143109 -0.006451897 0.11028876 -0.04495743 -0.063171975 0.046566557
-0.10530249 0.006596248 -0.022739826 0.027045477 0.026888931 -0.08768446 -0.03057384 -0.06342065
0.012176358 -0.07049872 0.021411764 -0.021213628 -0.020752756 -0.099657595 -0.025284493 -0.012450456
-0.07718618 0.18225193 -0.029841729 -0.039557345 0.019290721 0.04194409 0.16256088 0.05697235
-0.11952434 -0.020891763 -0.06638287 0.033791147 -0.037268262 0.10497878 0.1067793 0.0006913286
-0.1586227 -0.0048991283 0.016159136 0.03391381 0.0012746423 -0.069954686 -0.0062957085 0.012857357
0.16745105 -0.071329765 0.030916305 0.062666394 -0.011570404 -0.09176505 -0.024046483 -0.0663794
-0.05310941 -0.14227568 -0.0023495343 0.10558065 0.0293938 0.09552197 0.002197881 0.041003402
0.11917576 -0.031784996 0.026923114 -0.020114677 -0.07635374 0.040341094 -0.073803425 -0.033160757
00000000: 0091 05be 62f2 673e b4ec 07bc 1a9e 48bd
00000010: fe04 993d 1e78 4cbd 588c 5e3d be06 e0bc
00000020: 311f e9bc 5824 513d 6b84 2abd f51e 1a3e
00000030: 9e70 833d 1ce4 9e3d ed40 0e3d 20d0 ff3d
00000040: ede0 d5bc a90b 50be 5f8f 6abd 494f 0b3e
00000050: 7347 033e f7e5 0c3c 839d 67bd 80e3 483e
00000060: e190 423e 815f 0b3c ebc0 613d fe66 2e3d
00000070: d801 383b a588 ff3b 0c89 393e a0f4 953d
00000080: fe1a ac3d c3bc 41be 90a4 5dbd 81e3 debd
00000090: f742 1cbe fecc 5e3e 910e e5bd 4bda 1cbd
000000a0: 2a46 cdbd 61d2 11be bad0 233c b29a 453e
000000b0: 0f9a 503e fd67 a13d 6500 c43d 5871 5fbd
000000c0: ed3e c13d 7fa4 be3d 682f 18bd a14f b93d
000000d0: 2f36 cc3d a49f e33d b9dd b93c 467d 973d
000000e0: ae02 2abd 1ce9 63bd a7f4 613e 698a d3bd
000000f0: 631c 433e 83d9 643d bb88 cebd 30b5 1a3c
00000100: 7cba d5bd bda2 6f3d 5049 93bd 3d69 753a
00000110: a2ec 7fbd 3a82 503d 78bb 96bd 00fa 45b9
00000120: ef36 433e 2e72 cf3d f41c d33d 7a40 f6bd
00000130: a315 7c3d 54f1 033e 4bf3 0abd 86f3 ac3d
00000140: b1f0 59bd c0ca b23d f34d b03c f372 153e
00000150: 4ecb 7dbd cc18 5bbc 48af 8d3e bb47 153e
00000160: 1036 a6bd 3483 78bd 9ddc 643c 9288 343e
00000170: 4b8f 92bc 4e4c 40bd ecc0 d43d 6e04 1abe
00000180: 2007 cabd 46dd b03d d57f 51bb de85 0e3e
00000190: 6e59 a5bd 73dc 2bbe 135b 163e 9f82 4d3d
000001a0: a572 ecbb 396d 3fbb 6317 85bd d1e9 993d
000001b0: 95f3 fabd 331a 61be 574e 41bd 8ca9 1dbd
000001c0: 7152 bdbd 6fc0 57be 08f1 11be f17f 083e
000001d0: bd96 ff39 dd02 9e3d 6b63 b53d 10e1 12be
000001e0: a30b 123e 95fe c9bd 329d d63a f957 18be
000001f0: 366c 63be f629 e23c a271 58bd 7fe6 88bd
00000200: 9af3 b3bd 5ffc 92bd 4431 f3bb 8551 c8bc
00000210: de20 0dbe b4e4 6c3d 0cbe 1ebd 1131 fd3c
00000220: 25a6 87bc 5934 08bd 95b8 25bd 03ee 2fbe
00000230: 6a10 0fbe 90b3 b23d 1295 403d d881 1fbc
00000240: 7e23 75bc 9c14 823d b66d b9bd 149b df3c
00000250: 5c87 153e 3594 903b de46 76be e5f6 983d
00000260: 7da6 2fbc 1efc 943d 8087 ebbc f4f5 bdbc
00000270: 9dac 91bd 252c 37bd 483f b73c cdbc 623d
00000280: 4950 c13d 1a43 3bbd 57aa 053e 98e1 23be
00000290: c188 6c3d 312a fd3c 1cdd 263d 1220 79bd
000002a0: cf2d 673d a036 503d 09b4 55bd f9b8 04be
000002b0: d40b e8bd d208 cbbd cbeb 233c 2218 c6bb
000002c0: ef0b 4c3d f5be fbbd 8f9a 133e b9b4 abbc
000002d0: 83bc 5b3c ec43 69bd 56ae 97bd 9313 4b3c
000002e0: ccf0 a13c 6ddd 55bc 5034 adbc 6f6a d3bb
000002f0: 13df e13d 4825 38bd 4f60 81bd 93bc 3e3d
00000300: d5a8 d7bd 5725 d83b df48 babc 7a8e dd3c
00000310: 2d46 dc3c e993 b3bd fd75 fabc b0e2 81bd
00000320: 597f 473c a261 90bd b967 af3c 34c8 adbc
00000330: af01 aabc 4819 ccbd 6d21 cfbc fffc 4bbc
00000340: ca13 9ebd 40a0 3a3e a476 f4bc e206 22bd
00000350: 9307 9e3c 91cd 2b3d 5c76 263e d75b 693d
00000360: 2dc9 f4bd 3425 abbc bef3 87bd 9668 0a3d
00000370: 9ba6 18bd 1dff d63d 1baf da3d 473a 353a
00000380: fd6d 22be de88 a0bb 2a60 843c 35e9 0a3d
00000390: e611 a73a 6744 8fbd 3b4c cebb aaa7 523c
000003a0: 4a78 2b3e 5715 92bd 3144 fd3c 3d57 803d
000003b0: cb91 3dbc 51ef bbbd 21fd c4bc ecf1 87bd
000003c0: 4189 59bd b7b0 11be a5fa 19bb ab3a d83d
000003d0: 44cb f03c 06a1 c33d 530a 103b 2ff3 273d
000003e0: 6c12 f43d fc30 02bd dd8d dc3c 89c7 a4bc
000003f0: 5a5f 9cbd b43c 253d 4026 97bd 93d3 07bd
