assets/model.tflite (tflite, 337440 bytes, 40 tensors)

arith.constant3 f2 [4, 64]
-0.0732 0.11444 -0.04697 -0.2098 0.1606 0.2688 0.2065 0.2122
0.0807 -0.2517 0.09863 -0.03894 -0.1979 -0.144 -0.05203 0.1729
-0.0161 0.0242 0.2344 0.1068 -0.2474 -0.09546 -0.2072 0.03192
-0.2793 0.09607 -0.08295 -0.1942 0.1926 0.2659 -0.0717 0.163
0.12463 -0.2366 -0.09 -0.1394 0.06476 -0.02777 -0.1361 0.1625
0.1943 0.01695 -0.197 -0.12427 0.253 0.10876 -0.01682 0.06665
0.2708 0.10645 0.2454 0.00765 -0.2605 0.1664 -0.1425 0.2377
-0.2705 -0.08014 -0.2634 -0.2253 -0.2817 -0.1738 0.1456 -0.2258
0.129 -0.00404 0.1241 0.2369 -0.1569 -0.1621 -0.00399 0.1511
0.2593 -0.08795 -0.2812 -0.2678 -0.2183 0.1104 0.2236 0.2235
0.1388 0.1577 -0.271 0.1638 -0.0863 0.2417 0.10974 0.2438
0.223 -0.2727 -0.2683 0.11206 0.02173 -0.1599 -0.06073 0.03912
-0.2251 0.2255 0.217 0.0827 -0.1464 -0.0923 -0.02849 -0.3154
-0.12463 -0.2588 0.3083 -0.304 -0.1263 -0.2578 0.1926 0.2234
0.2493 -0.2805 0.1434 -0.322 0.1184 -0.2366 -0.1786 0.1469
0.1197 0.0912 0.01387 0.273 -0.2125 -0.07825 -0.1302 -0.129
-0.2644 -0.239 0.3254 -0.0625 0.10583 -0.1288 0.2603 0.01842
-0.1917 -0.06744 -0.01582 0.1902 -0.1923 0.281 0.3508 -0.2703
0.3044 -0.1812 -0.2937 -0.2563 0.2365 0.04318 0.2252 -0.2278
-0.1298 -0.1355 -0.03084 0.2329 -0.00609 -0.2092 -0.2476 -0.3115
-0.05984 0.1343 -0.1831 -0.1843 -0.138 0.2052 -0.3027 0.2363
-0.224 -0.2644 0.10925 -0.1399 -0.08716 0.0408 -0.0713 -0.1312
0.06305 -0.2783 0.2976 -0.2935 -0.1422 0.2258 -0.162 -0.1597
0.1956 -0.281 0.1364 0.12244 -0.2642 -0.2025 0.1758 -0.256
0.2576 0.0653 -0.09076 0.11005 -0.1721 0.1036 -0.2954 -0.2338
-0.212 0.07385 -0.0866 -0.03027 0.047 -0.2793 0.1597 0.12256
-0.1142 -0.1117 -0.1271 0.3381 0.1575 0.00381 0.0638 -0.1636
-0.01519 -0.06055 -0.2487 0.2343 -0.2544 0.2937 0.1025 -0.11676
0.11115 -0.00754 -0.10693 -0.1169 0.3086 0.3027 0.09155 -0.09033
0.05783 0.1065 0.0776 0.1377 -0.205 0.1642 0.3162 -0.273
0.003536 -0.1118 -0.1295 0.02098 0.1711 -0.1043 0.1362 -0.2045
-0.1777 0.0729 -0.099 -0.08905 0.2021 0.224 -0.1772 -0.02753
00000000: afac 532f 03aa b7b2 2431 4d34 9c32 ca32
00000010: 2a2d 07b4 502e fca8 55b2 9cb0 a9aa 8831
00000020: 1fa4 3226 8033 d62e ebb3 1cae a1b2 1628
00000030: 78b4 262e 4fad 37b2 2a32 4134 97ac 3731
00000040: fa2f 92b3 c3ad 76b0 252c 1ca7 5bb0 3331
00000050: 3832 5724 4eb2 f4af 0c34 f62e 4ea4 442c
00000060: 5534 d02e da33 d51f 2bb4 5331 8fb0 9b33
00000070: 54b4 21ad 37b4 36b3 82b4 90b1 a930 3ab3
00000080: 2130 239c f12f 9533 05b1 30b1 169c d630
00000090: 2634 a1ad 80b4 49b4 fcb2 112f 2833 2733
000000a0: 7130 0c31 56b4 3e31 86ad bc33 062f cd33
000000b0: 2333 5db4 4bb4 2c2f 9025 1eb1 c6ab 0229
000000c0: 34b3 3733 f232 4b2d afb0 e8ad 4ba7 0cb5
000000d0: faaf 24b4 ef34 ddb4 0bb0 20b4 2a32 2633
000000e0: fa33 7db4 9730 27b5 942f 92b3 b7b1 b330
000000f0: a92f d62d 1a23 5e34 cdb2 02ad 2bb0 21b0
00000100: 3bb4 a6b3 3535 00ac c62e 1fb0 2a34 b724
00000110: 22b2 51ac 0da4 1632 27b2 7f34 9d35 53b4
00000120: df34 ccb1 b3b4 1ab4 9133 8729 3533 4ab3
00000130: 27b0 56b0 e5a7 7433 3c9e b2b2 ecb3 fcb4
00000140: a9ab 4c30 dcb1 e6b1 6ab0 9132 d8b4 9033
00000150: 2bb3 3bb4 fe2e 7ab0 94ad 3929 90ac 33b0
00000160: 092c 74b4 c334 b2b4 8db0 3a33 2fb1 1cb1
00000170: 4232 7fb4 5d30 d62f 3ab4 7bb2 a031 19b4
00000180: 1f34 2e2c cfad 0b2f 82b1 a12e bab4 7bb3
00000190: c9b2 ba2c 8bad c0a7 042a 78b4 1c31 d82f
000001a0: 4faf 26af 11b0 6935 0a31 ce1b 152c 3cb1
000001b0: c7a3 c0ab f5b3 7f33 12b4 b334 8f2e 79af
000001c0: 1d2f b99f d8ae 7baf f034 d834 dc2d c8ad
000001d0: 672b d12e f72c 6830 8fb2 4131 0f35 5eb4
000001e0: 3e1b 28af 25b0 5f25 7a31 adae 5c30 8bb2
000001f0: b0b1 aa2c 56ae b3ad 7832 2b33 acb1 0ca7

arith.constant4 f2 [64, 128]
0.04123 0.11383 -0.1632 -0.2269 -0.0763 0.01837 0.03348 -0.1307
-0.02625 0.0331 -0.00576 0.1904 -0.05643 0.1187 -0.10944 0.06067
-0.004196 -0.0638 0.03056 0.088 -0.1265 0.1791 -0.0484 -0.0759
-0.0603 -0.0479 0.09155 0.213 0.03604 0.01563 0.06113 -0.1428
-0.0646 0.06152 -0.10406 -0.1929 -0.06366 -0.01768 -0.05994 0.0219
0.04623 0.0189 -0.1521 -0.2065 0.02766 0.0007014 0.008995 -0.1278
0.03836 0.03754 0.2179 0.1353 0.1841 -0.001324 0.1462 -0.05368
-0.02174 0.2057 -0.1059 0.0364 0.1704 -0.1969 -0.0904 -0.11395
-0.01868 -0.0705 -0.0892 -0.09076 0.1581 -0.004833 -0.1758 0.0498
0.0104 -0.1577 -0.0798 -0.0678 0.0232 0.09247 0.0923 0.02065
-0.0632 0.04117 0.03903 -0.1322 0.118 -0.0817 0.0781 -0.05063
-0.04486 0.05356 -0.01432 -0.113 0.05148 0.1272 -0.1603 0.0766
0.11884 -0.1428 -0.02632 -0.006042 0.02058 0.0779 -0.1398 0.1708
-0.06934 -0.1257 -0.1196 0.2386 0.06415 -0.06274 -0.05762 -0.1031
0.02147 -0.01371 -0.1886 -0.05283 0.2076 0.11176 0.06946 0.03598
-0.064 -0.11456 0.1155 0.2062 0.03583 0.07587 0.02597 -0.164
0.173 -0.1155 0.1309 0.03568 0.09125 0.05167 -0.1099 0.0428
0.014824 0.1498 0.1539 0.135 0.137 -0.02702 0.0772 -0.0617
0.1164 -0.03528 -0.1532 0.0455 -0.0757 0.0961 0.05252 -0.06555
0.1125 -0.1368 -0.1027 0.05103 -0.00951 -0.0384 0.1034 -0.1506
-0.06192 0.0682 -0.04016 0.08344 -0.00819 0.006523 -0.1367 0.1305
-0.06635 0.01944 -0.01289 -0.0895 0.0945 0.08966 0.0663 0.12054
0.004425 0.1276 -0.0286 0.03702 8.357e-05 0.0804 -0.1686 0.007324
-0.04874 0.1252 0.09546 0.1295 -0.1736 -0.1616 0.06256 -0.1387
0.158 0.1313 0.03018 -0.01945 -0.0717 0.1206 0.11005 -0.06604
0.05896 -0.1946 0.05124 0.0335 0.0281 -0.1191 0.169 0.07623
0.1492 0.07495 -0.02443 -0.02614 -0.1337 0.0934 -0.02882 0.2064
-0.1815 0.1353 -0.08215 0.04782 0.01406 -0.03256 -0.1663 -0.05167
-0.0971 0.09894 0.03021 0.055 -0.05554 0.1126 -0.02516 -0.1244
-0.0191 0.189 -0.08435 0.0908 -0.1545 -0.148 -0.03494 0.1224
-0.107 -0.01488 0.0901 -0.06354 0.1483 0.137 -0.1019 -0.01794
0.05655 0.07825 0.00908 -0.145 0.0687 -0.09894 0.1387 0.0798
00000000: 4729 492f 39b1 43b3 e2ac b424 4928 2fb0
00000010: b8a6 3d28 e69d 1832 39ab 992f 01af c42b
00000020: 4c9c 15ac d327 a22d 0cb0 bb31 32aa dcac
00000030: b8ab 22aa dc2d d132 9d28 0024 d32b 92b0
00000040: 22ac e02b a9ae 2cb2 13ac 87a4 acab 9b25
00000050: eb29 d724 deb0 9cb2 1527 bf11 9b20 17b0
00000060: e928 ce28 f932 5430 e431 6c95 ae30 dfaa
00000070: 91a5 9532 c7ae a928 7431 4db2 c9ad 4baf
00000080: c8a4 83ac b5ad cfad 0f31 f39c a0b1 602a
00000090: 5321 0cb1 1bad 57ac f025 eb2d e82d 4925
000000a0: 0bac 4529 ff28 3bb0 8d2f 3bad 002d 7baa
000000b0: bea9 db2a 55a3 3baf 972a 1230 21b1 e72c
000000c0: 9b2f 92b0 bda6 309e 4525 fc2c 79b0 7731
000000d0: 70ac 06b0 a8af a333 1b2c 04ac 60ab 99ae
000000e0: 7f25 05a3 09b2 c3aa a532 272f 722c 9b28
000000f0: 19ac 55af 642f 9932 9628 db2c a626 3fb1
00000100: 8931 64af 3030 9128 d72d 9d2a 09af 7a29
00000110: 9723 cb30 ed30 5230 6230 eba6 f12c e6ab
00000120: 732f 84a8 e7b0 d329 d8ac 272e b92a 32ac
00000130: 332f 61b0 93ae 882a dea0 eaa8 9e2e d2b0
00000140: edab 5d2c 24a9 572d 31a0 ae1e 60b0 2d30
00000150: 3fac fa24 9aa2 baad 0c2e bd2d 3e2c b72f
00000160: 881c 1530 52a7 bd28 7a05 252d 65b1 801f
00000170: 3daa 0230 1c2e 2530 8eb1 2cb1 012c 70b0
00000180: 0e31 3430 ba27 fba4 97ac b82f 0b2f 3aac
00000190: 8c2b 3ab2 8f2a 4a28 3227 9faf 6831 e12c
000001a0: c630 cc2c 41a6 b1a6 47b0 fa2d 61a7 9b32
000001b0: cfb1 5430 42ad 1f2a 3323 2ba8 52b1 9daa
000001c0: 37ae 552e bc27 0a2b 1cab 352f 71a6 f6af
000001d0: e4a4 0c32 66ad d02d f2b0 bcb0 79a8 d52f
000001e0: d9ae 9ea3 c42d 11ac bf30 6230 86ae 98a4
000001f0: 3d2b 022d a620 a4b0 662c 55ae 7030 1b2d

arith.constant5 f2 [1, 128]
-0.1635 0.133 0.0732 0.1959 0.1477 -0.0721 -0.1765 0.0162
0.1231 -0.1738 -0.1425 -0.0764 -0.007248 0.02924 -0.2352 0.1136
0.083 -0.1398 0.1874 0.2612 0.1523 -0.06885 -0.05276 -0.1267
-0.1626 0.2056 0.1456 -0.2087 -0.1344 0.014656 0.06204 0.1525
0.006207 -0.0858 0.03397 0.2002 0.1566 -0.1577 0.0834 0.05923
0.01328 -0.10297 0.12415 0.02052 0.01055 0.08386 -0.2224 0.1945
0.1677 0.04272 -0.1287 -0.0459 0.01059 -0.1971 -0.07294 0.0113
-0.05615 -0.2583 -0.0867 -0.0424 0.164 0.1876 0.1781 0.0976
0.1328 0.109 -0.05505 -0.03775 -0.1439 0.01596 0.0738 0.12244
0.1941 0.0544 -0.1399 -0.03485 0.1799 -0.0724 0.007614 0.159
-0.2123 0.03363 0.1407 0.05267 0.1328 0.10284 -0.1139 -0.2236
0.03232 0.2495 -0.092 -0.1357 0.05078 0.073 0.2078 0.1641
-0.0732 -0.1754 -0.0747 -0.09845 0.1895 -0.05188 -0.08185 0.148
-0.0887 0.1407 -0.1592 0.02632 -0.0473 -0.1175 0.09564 0.005363
-0.2229 0.1882 0.09827 -0.1414 0.127 -0.161 0.05484 0.1124
-0.2145 -0.1965 0.1987 -0.1537 -0.10046 -0.018 -0.00111 0.04852
00000000: 3bb1 4230 af2c 4532 ba30 9dac a6b1 2624
00000010: e12f 90b1 8fb0 e4ac 6c9f 7c27 87b3 452f
00000020: 502d 79b0 ff31 2e34 e030 68ac c1aa 0eb0
00000030: 34b1 9432 a930 aeb2 4db0 8123 f12b e130
00000040: 5b1e 7ead 5928 6832 0331 0cb1 562d 952b
00000050: cd22 97ae f22f 4125 6721 5e2d 1eb3 3932
00000060: 5e31 7829 1eb0 e0a9 6c21 4fb2 abac c921
00000070: 30ab 22b4 8cad 6da9 3f31 0132 b331 3f2e
00000080: 4030 fa2e 0cab d5a8 9bb0 1624 b92c d62f
00000090: 3632 f72a 7ab0 76a8 c231 a2ac cc1f 1731
000000a0: cbb2 4e28 8130 be2a 4030 952e 4aaf 28b3
000000b0: 2328 fc33 e3ad 58b0 802a ac2c a632 4031
000000c0: afac 9db1 c8ac 4dae 1032 a4aa 3dad bc30
000000d0: adad 8130 18b1 bd26 0eaa 85af 1f2e 7e1d
000000e0: 22b3 0632 4a2e 86b0 1030 27b1 052b 322f
000000f0: ddb2 4ab2 5c32 ebb0 6eae 9ca4 8c94 362a

arith.constant19 f2 [35, 1]
-0.10077 -0.09033 -0.0776 0.04443 0.1284 0.1993 0.222 0.2408
0.2615 0.2075 0.0666 -0.1439 -0.209 -0.2595 -0.1609 -0.0398
0.0869 0.14 0.1444 0.1742 0.174 0.1552 0.08185 -0.04544
-0.174 -0.1874 -0.1342 -0.1188 -0.08887 -0.00779 0.05878 0.03017
-0.02512 0.06085 -0.0159
00000000: 73ae c8ad f7ac b029 1c30 6132 1b33 b533
00000010: 2f34 a432 432c 9bb0 b0b2 27b4 26b1 18a9
00000020: 902d 7b30 9f30 9331 9131 f730 3d2d d1a9
00000030: 91b1 ffb1 4bb0 9aaf b0ad fa9f 862b b927
00000040: 6ea6 ca2b 12a4

arith.constant20 f4 [64]
0.015311694 0.18879531 0.12987398 0.009338192 0.026662348 0.10667932 0.026410794 0.36503005
0.11237044 0.027640369 0.15406613 0.3904172 0.28428575 0.040364064 0.25683883 0.09723153
0.011341526 0.04727019 0.104123816 0.019264989 0.04263163 0.015436667 0.16806464 0.229432
0.15034562 0.061357003 0.048789877 0.04641834 0.0417508 0.16372015 0.051714595 0.08171226
0.29238653 0.12744905 0.047274902 0.018506369 0.2956115 0.022077126 0.11405718 0.14197616
0.03167054 0.16695368 0.04851747 0.08889324 0.014991122 0.053796053 0.44039726 0.0142114535
0.24226294 0.11008385 0.104325384 0.18072207 0.10515455 0.06688497 0.11809983 0.13421987
0.42119443 0.0171791 0.21452747 0.10513579 0.069854915 0.33673105 0.27538067 0.019503174
00000000: e6dd 7a3c 8f53 413e affd 043e 37ff 183c
00000010: ff6a da3c b07a da3d 735b d83c 38e5 ba3e
00000020: 7922 e63d 0e6e e23c 83c3 1d3e c3e4 c73e
00000030: e78d 913e ca54 253d 6180 833e 5321 c73d
00000040: cfd1 393c 639e 413d de3e d53d 9cd1 9d3c
00000050: 819e 2e3d 13ea 7c3c 2319 2c3e 39f0 6a3e
00000060: 34f4 193e 7b51 7b3d e5d7 473d 2821 3e3d
00000070: e302 2b3d 41a6 273e afd2 533d c258 a73d
00000080: b0b3 953e 0182 023e 54a3 413d ab9a 973c
00000090: 645a 973e 17db b43c d096 e93d 3362 113e
000000a0: f8b8 013d e8f5 2a3e 41ba 463d a90d b63d
000000b0: 539d 753c 4059 5c3d c07b e13e 28d7 683c
000000c0: c713 783e a473 e13d 8ca8 d53d 350f 393e
000000d0: 455b d73d fdfa 883d 53de f13d ef70 093e
000000e0: cca6 d73e 2fbb 8c3c 17ad 5b3e 6f51 d73d
000000f0: 1810 8f3d 0368 ac3e b2fe 8c3e 1fc5 9f3c

arith.constant21 f4 [64]
-0.39975905 -0.012459002 -0.37308562 -0.4004608 -0.30829892 0.061945736 -0.2556349 -0.3638795
0.035996202 -0.3877806 -0.09916505 -0.37295294 0.1519399 -0.30712658 -0.378721 -0.0011326782
-0.39970738 0.15442584 -0.053902257 -0.38357624 -0.2743173 -0.36769995 -0.3117523 0.2350938
0.08870825 0.09937777 0.012259889 -0.2504675 -0.026331909 -0.00013791583 0.14563288 -0.37530214
-0.5562744 -0.011739366 0.037319973 -0.377149 -0.22834802 -0.38955027 0.15490738 0.034562815
-0.19411585 0.018146247 -0.31408617 -0.34596765 -0.37362772 0.033633925 -0.49466753 -0.4050549
-0.09775813 -0.13756847 0.08272153 0.0106355585 0.10825057 -0.1308013 -0.15723288 0.063743524
0.0017921627 -0.3690688 -0.37455705 -0.30916822 0.028272927 -0.43364635 -0.14146912 -0.4165844
00000000: 38ad ccbe d820 4cbc 1405 bfbe 3309 cdbe
00000010: 5bd9 9dbe d0ba 7d3d 94e2 82be 6a4e babe
00000020: c170 133d 2e8b c6be 0c17 cbbd b0f3 bebe
00000030: 2296 1b3e b23f 9dbe b8e7 c1be 6076 94ba
00000040: 72a6 ccbe cf21 1e3e 9dc8 5cbd 1b64 c4be
00000050: 5173 8cbe 2b43 bcbe ff9d 9fbe 6ebc 703e
00000060: acac b53d 9386 cb3d b4dd 483c 473d 80be
00000070: 04b6 d7bc 809d 10b9 c920 153e 9a27 c0be
00000080: 0068 0ebf 7856 40bc d4dc 183d ac19 c1be
00000090: 10d4 69be 2273 c7be 0aa0 1e3e bd91 0d3d
000000a0: 4ec6 46be 70a7 943c e7cf a0be ac22 b1be
000000b0: 224c bfbe bac3 093d 1045 fdbe 5b63 cfbe
000000c0: 6a35 c8bd c0de 0cbe e869 a93d c440 2e3c
000000d0: 7ab2 dd3d c7f0 05be a801 21be f78b 823d
000000e0: 00e7 ea3a 96f6 bcbe f1c5 bfbe 4c4b 9ebe
000000f0: a09c e73c e506 debe 48dd 10be 8d4a d5be

arith.constant22 f4 [128]
0.6774771 1.3960937 0.89029825 0.8580812 0.92303485 0.8169435 1.4319581 1.1750345
1.1009414 1.2731382 1.0398326 1.0478371 0.8639595 1.3716793 1.1360375 1.2560321
0.8109616 0.9761802 1.3005915 0.8780783 0.7630201 1.0864431 0.8806808 1.3305055
1.1309925 1.0515841 0.9257181 0.86576813 1.4139643 0.9840783 1.1425444 1.0848168
1.236277 0.8870951 1.3029928 0.7468175 0.85823697 1.0266557 0.871749 0.93908256
0.87067795 0.85199213 1.0425556 0.6511381 0.9338556 0.91756 1.1198047 1.2129209
0.81700814 1.0139742 0.6636832 0.9935251 0.8944309 0.9872957 0.96338254 0.9002455
0.9069467 0.887807 1.1509463 0.79347736 0.6886297 0.9113366 1.285444 0.7198975
1.2502347 0.97215 0.9692397 1.2616845 1.1612804 1.0635129 0.9933979 1.0285951
0.8281546 1.3678313 1.1945436 1.5294793 0.96794176 0.9879029 1.183775 0.8109473
1.0041909 1.1977562 0.6983988 1.0010817 0.81272525 1.0900365 0.85818034 0.897123
0.59532696 0.7918112 1.2674354 1.0121902 1.0350713 0.8667399 1.3651981 1.0662513
0.88815737 0.9434242 1.0087135 0.9730655 0.9263081 0.9006297 0.7005856 1.0317767
1.0067589 0.9163223 0.65070987 0.7897978 0.97619593 1.1375414 1.0729634 1.1228006
0.8338736 1.1181796 0.88840604 0.91089547 0.8140144 1.0067841 0.776526 0.7217479
0.8611288 1.2320101 0.89027756 1.0392562 0.8686756 1.0448474 0.8987494 1.0363785
00000000: 246f 2d3f 33b3 b23f 96ea 633f 36ab 5b3f
00000010: 034c 6c3f 3623 513f 674a b73f 8867 963f
00000020: a6eb 8c3f 31f6 a23f 3c19 853f 871f 863f
00000030: 732c 5d3f 3093 af3f ad69 913f a9c5 a03f
00000040: 2e9b 4f3f f2e6 793f c879 a63f bdc9 603f
00000050: 4955 433f 9110 8b3f 4c74 613f 014e aa3f
00000060: 5dc4 903f 4f9a 863f ddfb 6c3f fba2 5d3f
00000070: c8fc b43f 8eec 7b3f e53e 923f 47db 8a3f
00000080: 533e 9e3f aa18 633f 78c8 a63f 6f2f 3f3f
00000090: 6bb5 5b3f 7469 833f f12a 5f3f b767 703f
000000a0: c0e4 5e3f 281c 5a3f 7672 853f fdb0 263f
000000b0: 2911 6f3f 36e5 6a3f c355 8f3f fe40 9b3f
000000c0: 7227 513f e8c9 813f 24e7 293f a957 7e3f
000000d0: 6cf9 643f 69bf 7c3f 3da0 763f 7d76 663f
000000e0: a92d 683f 5247 633f 3552 933f 5521 4b3f
000000f0: 094a 303f 5b4d 693f 6e89 a43f 344b 383f
00000100: b107 a03f d3de 783f 1820 783f e17e a13f
00000110: d6a4 943f 3121 883f 534f 7e3f 01a9 833f
00000120: f101 543f 1915 af3f cee6 983f fac5 c33f
00000130: 08cb 773f 34e7 7c3f f085 973f 3e9a 4f3f
00000140: 5489 803f 1350 993f 44ca 323f 7223 803f
00000150: c30e 503f 5186 8b3f b5b1 5b3f daa9 653f
00000160: 5967 183f 24b4 4a3f 533b a23f 738f 813f
00000170: 377d 843f abe2 5d3f d0be ae3f ec7a 883f
00000180: 485e 633f 4084 713f 861d 813f d21a 793f
00000190: 8722 6d3f ab8f 663f 9459 333f 4211 843f
000001a0: 7add 803f 1994 6a3f ec94 263f 3030 4a3f
000001b0: fae7 793f f59a 913f dd56 893f eeb7 8f3f
000001c0: be78 553f 8220 8f3f 946e 633f 7230 693f
000001d0: 3f63 503f 4dde 803f 68ca 463f 78c4 383f
000001e0: f072 5c3f 82b2 9d3f 3be9 633f 5906 853f
000001f0: 8661 5e3f 8fbd 853f 7114 663f 0da8 843f

arith.constant23 f4 [128]
-0.17393568 -0.26405007 -0.39211494 -0.4459125 -0.4880764 -0.121931724 0.03211151 0.122249044
-0.15179831 -0.26132113 -0.49543968 -0.17613928 -0.41693002 -0.092857614 -0.32899618 -0.25518999
-0.46462443 0.1426019 -0.14655308 -0.43694475 0.20307672 0.039788708 -0.3838426 -0.17574643
-0.3567211 -0.25774902 -0.27763528 0.048429236 -0.36810386 -0.23262924 0.07756214 -0.4421223
0.060120158 -0.43599793 -0.20255475 -0.2969893 -0.22312364 -0.72936696 -0.5164868 0.08229253
-0.14297745 0.11994906 -0.058920134 -0.3708758 -0.25135356 -0.22133835 0.16594587 -0.1280794
-0.25134555 0.18811472 -0.3254278 -0.36509073 -0.111333415 0.009341857 -0.3339731 -0.0894322
-0.2682964 -0.45386875 -0.052570187 -0.24802783 -0.17654404 -0.1646241 -0.17910437 -0.23404314
-0.038785093 -0.44019794 -0.21700707 -0.506573 -0.050497323 -0.25185242 0.12009292 -0.47999018
-0.17616208 -0.099431805 -0.4091194 -0.2925394 -0.54732126 -0.25256366 -0.29356655 -0.088092566
-0.11169505 0.16417986 -0.38713595 -0.105760254 -0.36349338 -0.25029975 -0.11541447 -0.22203818
0.22635557 -0.12931967 -0.017463181 -0.42741954 -0.6007471 -0.229879 -0.10435148 -0.102073394
-0.3716453 0.2695368 -0.04211899 0.0589314 -0.08317445 -0.28256586 -0.51080257 -0.09465374
0.38891554 -0.042515054 -0.3172423 -0.3478529 -0.29905316 0.23150468 -0.14854586 -0.27594876
0.29667217 -0.05765471 0.28625524 -0.44534978 -0.13193288 -0.11684244 -0.4062997 0.35935393
-0.24502647 -0.05572267 -0.3746701 -0.11607374 -0.09653429 0.007123033 -0.42152244 0.41614828
00000000: 321c 32be 9231 87be 4ac3 c8be a54e e4be
00000010: 26e5 f9be 57b7 f9bd 5c87 033d b55d fa3d
00000020: 0471 1bbe e2cb 85be 45aa fdbe db5d 34be
00000030: da77 d5be 222c bebd 3072 a8be 43a8 82be
00000040: 41e3 edbe 3c06 123e 0312 16be 39b7 dfbe
00000050: 58f3 4f3e 7cf9 223d 0487 c4be dff6 33be
00000060: 26a4 b6be aef7 83be 3626 8ebe bc5d 463d
00000070: 1c78 bcbe 5c36 6ebe e6d8 9e3d db5d e2be
00000080: 8e40 763d 1f3b dfbe 836a 4fbe fb0e 98be
00000090: 867a 64be cbb7 3abf 7b38 04bf fc88 a83d
000000a0: ae68 12be daa7 f53d 3d56 71bd 6fe3 bdbe
000000b0: 6ab1 80be 85a6 62be b7ed 293e 3f27 03be
000000c0: 5db0 80be 25a1 403e 799e a6be 2ced babe
000000d0: c602 e4bd 970e 193c 86fe aabe 3b28 b7bd
000000e0: 255e 89be 7c61 e8be d653 57bd 02fb 7dbe
000000f0: f6c7 34be 3893 28be 2367 37be 01a9 6fbe
00000100: 1edd 1ebd a061 e1be 1a37 5ebe c5ae 01bf
00000110: 48d6 4ebd cdf2 80be 47f3 f53d 46c1 f5be
00000120: d563 34be e7a2 cbbd 1978 d1be b9c7 95be
00000130: 3f1d 0cbf 0650 81be 5b4e 96be e069 b4bd
00000140: 60c0 e4bd c41e 283e af36 c6be d598 d8bd
00000150: ce1b babe 4a27 80be 6c5e ecbd fa5d 63be
00000160: c1c9 673e 606c 04be f20e 8fbc bcd6 dabe
00000170: 90ca 19bf 6765 6bbe 3bb6 d5bd db0b d1bd
00000180: 4b48 bebe ba00 8a3e f684 2cbd 0d62 713d
00000190: 5e57 aabd 79ac 90be f5c3 02bf d2d9 c1bd
000001a0: f01f c73e 4424 2ebd 956d a2be c619 b2be
000001b0: 7f1d 99be 900f 6d3e 681c 18be 2849 8dbe
000001c0: 6ae5 973e 5827 6cbd 0c90 923e e304 e4be
000001d0: 6a19 07be 174b efbd 8406 d0be 3dfd b73e
000001e0: 38e8 7abe 743d 64bd c2d4 bfbe 12b8 edbd
000001f0: c5b3 c5bd 5568 e93b cad1 d7be 6311 d53e

arith.constant24 f4 [128]
2.726308 5.257004 4.245816 5.4403067 3.6773372 3.0742455 4.651956 4.932094
8.376997 3.6090488 7.2029133 5.2152843 3.8254008 2.8621588 3.7125905 3.580374
2.307807 5.3514676 3.0254679 3.792627 8.849531 3.7067535 3.487041 5.0917864
3.727896 2.9548995 2.4544244 3.894801 6.0039396 2.2963576 4.1782184 2.7067275
3.333774 4.43892 3.05324 6.1315513 6.1092105 3.3378313 3.5530846 3.9647963
2.5904257 4.4768095 3.1933017 3.8174577 3.2752767 3.5496283 5.8510237 4.3877635
4.3062215 6.4933057 2.0529828 6.037786 4.3969183 2.7610934 4.2602344 2.4532673
6.222519 3.2861316 4.564454 3.1346617 4.0188646 5.087339 5.3117266 5.2727146
3.809079 5.6031885 5.475494 5.233206 5.447273 3.2359066 2.0320349 2.677675
4.4470997 3.5633824 2.9329534 4.367176 3.5193288 3.6022246 2.9051785 3.6008792
6.156139 3.0468853 3.2167048 3.1678298 2.6231475 3.1749887 4.3955407 4.5081153
4.7597504 2.1051354 5.8630714 3.677277 4.213264 4.7819448 4.329437 3.1264393
3.686305 4.674883 2.5108438 3.8269966 3.9329562 2.546968 2.8576214 4.0658383
6.2587366 4.2069783 3.661723 2.452352 4.9579597 3.8139622 4.820082 3.5717168
3.3711858 2.6724873 3.5791752 4.6044593 2.6077335 4.3087034 2.7198255 3.9528942
3.5554523 3.345253 2.485126 3.3814898 3.1497796 2.7590506 3.1995914 3.1916947
00000000: d57b 2e40 6039 a840 badd 8740 fe16 ae40
00000010: 7e59 6b40 70c0 4440 d3dc 9440 b7d3 9d40
00000020: 2e08 0641 a8fa 6640 447e e640 9ce3 a640
00000030: 5ed3 7440 9c2d 3740 159b 6d40 d924 6540
00000040: 1cb3 1340 393f ab40 44a1 4140 67ba 7240
00000050: ae97 0d41 733b 6d40 ae2b 5f40 eaef a240
00000060: d995 6e40 131d 3d40 4a15 1d40 6b44 7940
00000070: 4620 c040 86f7 1240 f7b3 8540 063b 2d40
00000080: 8e5c 5540 a20b 8e40 4968 4340 ab35 c440
00000090: a77e c340 079f 5540 bd65 6340 39bf 7d40
000000a0: 89c9 2540 0642 8f40 0e5f 4c40 3a51 7440
000000b0: 229e 5140 1c2d 6340 963b bb40 8f68 8c40
000000c0: 91cc 8940 29c9 cf40 1264 0340 8b35 c140
000000d0: 8eb3 8c40 c1b5 3040 d753 8840 5502 1d40
000000e0: e01e c740 fb4f 5240 0210 9240 4c9e 4840
000000f0: 8a9a 8040 7bcb a240 aaf9 a940 14ba a840
00000100: f3c7 7340 524d b340 3f37 af40 6c76 a740
00000110: 0f50 ae40 1819 4f40 dc0c 0240 075f 2b40
00000120: a44e 8e40 750e 6440 82b5 3b40 e8bf 8b40
00000130: af3c 6140 d98a 6640 72ee 3940 ce74 6640
00000140: 17ff c440 2b00 4340 7ede 4d40 b9bd 4a40
00000150: a6e1 2740 0433 4b40 45a8 8c40 7b42 9040
00000160: e04f 9840 8aba 0640 489e bb40 8258 6b40
00000170: 0fd3 8640 b105 9940 bf8a 8a40 9517 4840
00000180: 6cec 6b40 a498 9540 aab1 2040 83ed 7440
00000190: 8eb5 7b40 8601 2340 45e3 3640 591b 8240
000001a0: 9247 c840 919f 8640 ab59 6a40 56f3 1c40
000001b0: 9ba7 9e40 f517 7440 1d3e 9a40 0297 6440
000001c0: 82c1 5740 080a 2b40 3511 6540 bb57 9340
000001d0: 1be5 2640 e6e0 8940 9f11 2e40 38fc 7c40
000001e0: 888c 6340 a018 5640 4e0c 1f40 546a 5840
000001f0: fd95 4940 4994 3040 1bc6 4c40 ba44 4c40

arith.constant25 f4 [128]
-0.1069592 -0.23303807 0.4250185 -0.6503299 0.87077737 0.49317163 -0.0080655385 0.4121656
0.48770404 -0.5959325 -0.8237115 -0.81769174 -1.301444 0.32493427 -0.46475652 -0.32831916
0.108478874 0.29880542 -0.52208143 -0.27909806 0.7265702 0.67118305 -0.2153713 0.32719505
0.4488401 0.8942528 -0.43229863 1.1856556 0.15369979 0.662745 -0.9717777 -0.48111123
-0.18409587 -0.71270263 0.78015584 0.011802757 -0.66518044 0.28320748 -0.7665619 -0.7789234
-0.5570478 -0.5838721 0.5120025 0.14194722 0.71445346 0.7120631 -0.33897913 -0.39643472
-0.2594226 -0.9919669 0.26763076 0.1188228 1.2307851 0.54546154 0.14491908 -0.17017785
-0.47125238 0.5020834 -0.20278208 -0.541326 0.032751944 -0.6244643 1.0765167 0.28687054
1.0451862 0.9612712 -0.193079 0.178411 0.53478396 -0.49778438 0.033983327 -0.7148286
-0.42245892 -0.13871996 -0.85797375 -0.038228087 -0.25294077 0.38868362 0.0018380508 0.8780679
-1.0292137 -0.2600565 -0.18621498 0.19923213 -0.22465557 1.1655564 1.3708738 -0.5247927
1.2639692 -0.52029544 -0.6154875 1.3678505 -0.2674743 0.8553347 0.23542446 0.40882206
0.079033114 -1.4957093 -0.6264176 -0.4333812 -0.57244253 -0.4101879 0.8913138 1.2617652
-0.79999614 -1.3724104 -0.85299116 0.69622487 0.5729544 -0.88195485 -0.3415272 -1.2114754
0.4163267 0.0798513 -0.6481498 -0.45490694 0.72318965 0.81866443 0.5897697 0.7784292
0.82586515 -0.05269503 -0.14544712 0.575765 -0.5578131 0.25074252 0.55373544 0.710919
00000000: 6d0d dbbd 88a1 6ebe 069c d93e 057c 26bf
00000010: 44eb 5e3f fe80 fc3e 5225 04bc 5f07 d33e
00000020: 58b4 f93e 088f 18bf c2de 52bf 3f54 51bf
00000030: b895 a6bf c95d a63e 91f4 edbe 7319 a8be
00000040: 2c2a de3d 06fd 983e 21a7 05bf f1e5 8ebe
00000050: 8100 3a3f a7d2 2b3f 4b8a 5cbe 1c86 a73e
00000060: 5fce e53e c0ed 643f 3f56 ddbe 90c3 973f
00000070: 7a63 1d3e a8a9 293f 6cc6 78bf 3654 f6be
00000080: a183 3cbe ae73 36bf 4bb8 473f 5a60 413c
00000090: 4449 2abf 9200 913e 673d 44bf 8667 47bf
000000a0: af9a 0ebf a478 15bf 9912 033f 9d5a 113e
000000b0: 6ce6 363f c449 363f ac8e adbe 7ef9 cabe
000000c0: 0ad3 84be 8bf1 7dbf e606 893e 5e59 f33d
000000d0: 5e8a 9d3f 5ea3 0b3f ab65 143e 1a43 2ebe
000000e0: fe47 f1be 8a88 003f 1ba6 4fbe 5794 0abf
000000f0: e726 063d e4dc 1fbf 4dcb 893f b2e0 923e
00000100: a9c8 853f df15 763f 80b6 45be 60b1 363e
00000110: 9ae7 083f 98dd febe 1a32 0b3d 02ff 36bf
00000120: 894c d8be 9b0c 0ebe 2ba4 5bbf 0e95 1cbd
00000130: 7481 81be 8a01 c73e c0ea f03a 0fc9 603f
00000140: 46bd 83bf 2026 85be 24af 3ebe 8203 4c3e
00000150: 1c0c 66be f430 953f cb78 af3f d058 06bf
00000160: bec9 a13f 1532 05bf 9790 1dbf ba15 af3f
00000170: 64f2 88be 37f7 5a3f 1c13 713e 2051 d13e
00000180: 1ddc a13d 6773 bfbf e75c 20bf 24e4 ddbe
00000190: 988b 12bf 2604 d2be 242d 643f 8681 a13f
000001a0: 8ccc 4cbf 25ab afbf a15d 5abf cb3b 323f
000001b0: 24ad 123f cbc7 61bf a7dc aebe a011 9bbf
000001c0: c628 d53e 1489 a33d 25ed 25bf 90e9 e8be
000001d0: f522 393f fe93 513f 26fb 163f 2347 473f
000001e0: e66b 533f bed6 57bd 17f0 14be 5665 133f
000001f0: d7cc 0ebf 5361 803e 9bc1 0d3f cafe 353f

arith.constant26 f2 [1, 3, 28, 64]
0.1076 0.1364 -0.1471 -0.0694 -0.06195 -0.04932 -0.04395 -0.05087
0.05014 0.10944 -0.04834 -0.1346 0.11084 -0.1003 -0.0886 0.05374
-0.1458 -0.06335 -0.09344 -0.1085 0.01663 0.10724 0.0899 0.0386
-0.1326 0.001444 0.1384 0.0157 0.146 -0.1431 -0.1432 0.02477
0.126 0.06586 -0.07263 -0.0604 0.03818 -0.1418 -0.08344 -0.06003
-0.01183 0.04016 -0.1227 -0.1436 -0.10864 -0.08704 -0.0981 0.1228
-0.005985 0.1004 -0.141 0.01672 -0.05695 -0.1191 0.0651 -0.05136
0.1473 0.1381 0.1114 -0.1193 -0.063 0.1473 0.00977 0.02156
-0.10406 -0.02629 -0.013145 -0.0841 0.1071 0.01917 0.1031 0.05002
0.1212 -0.00887 -0.0827 -0.0702 -0.0639 0.04837 0.1011 0.1371
-0.0987 -0.055 -0.08923 0.10547 0.1068 0.1296 -0.04138 0.1383
-0.1011 -0.03836 -0.06146 -0.0863 -0.04913 -0.0954 0.10913 -0.1296
-0.0316 -0.10376 -0.00548 -0.0051 0.1243 0.04803 0.05734 -0.035
-0.04437 -0.02507 -0.03065 0.05206 0.1466 0.05844 -0.01945 -0.1316
0.1081 0.1082 -0.02425 0.0752 0.0273 0.05145 -0.065 -0.00851
-0.00426 0.1008 0.08185 0.002739 0.0769 -0.00655 0.1 0.11755
0.02327 -0.0644 0.05447 0.0639 0.01456 -0.02106 -0.1405 -0.02016
-0.012924 -0.00679 0.03793 -0.09076 0.1123 0.07666 0.0809 -0.08044
-0.12305 0.01831 0.000295 0.083 0.01768 0.11566 -0.0556 0.0496
-0.1432 0.05652 -0.109 -0.05356 -0.065 -0.1259 -0.01765 0.1454
-0.05698 -0.08356 0.05475 -0.05295 0.067 0.00412 -0.08673 -0.01797
-0.11945 -0.0827 -0.0728 0.10675 -0.06067 0.1095 0.03223 0.1412
0.0671 0.00291 -0.04584 -0.07635 0.0829 0.0869 0.03775 -0.01921
-0.129 -0.0682 -0.12427 -0.08746 -0.1204 -0.08795 -0.0391 -0.145
0.1359 0.0644 0.001264 -0.00988 0.0992 0.10333 0.00992 0.03757
-0.02373 0.1364 -0.1153 0.08435 0.00562 0.000634 -0.07983 0.06934
-0.1138 -0.1368 -0.07043 -0.03336 0.1436 0.003128 0.1154 0.1394
-0.109 0.1409 -0.1098 0.02003 0.10364 0.000563 -0.10046 -0.14
-0.0546 -0.1301 -0.1332 0.01794 0.0308 0.1265 -0.03134 0.1021
0.0601 0.1421 -0.1465 -0.09973 -0.0625 -0.0423 0.1279 -0.06012
0.01383 0.1214 -0.147 0.0813 -0.0545 0.002005 0.05157 0.1199
-0.05276 0.1301 0.0386 0.01489 0.0627 -0.03757 -0.00932 -0.0698
00000000: e32e 5d30 b5b0 71ac eeab 50aa a0a9 83aa
00000010: 6b2a 012f 30aa 4fb0 182f 6bae acad e12a
00000020: aab0 0eac fbad f2ae 4224 dd2e c12d f128
00000030: 3eb0 ea15 6e30 0524 ac30 94b0 95b0 5726
00000040: 0830 372c a6ac bbab e328 8ab0 57ad afab
00000050: 0fa2 2429 daaf 98b0 f4ae 92ad 47ae dc2f
00000060: 219e 6d2e 83b0 4824 4aab 9faf 2b2c 93aa
00000070: b730 6b30 212f a3af 08ac b730 0121 8525
00000080: a9ae bba6 bba2 62ad db2e e824 992e 672a
00000090: c22f 8ba0 4bad 7eac 17ac 312a 782e 6330
000000a0: 51ae 0aab b6ad c02e d62e 2630 4ca9 6d30
000000b0: 78ae e9a8 deab 86ad 4aaa 1bae fc2e 26b0
000000c0: 0ba8 a4ae 9d9d 399d f52f 262a 572b 7ba8
000000d0: aea9 6ba6 d9a7 aa2a b130 7b2b fba4 36b0
000000e0: eb2e ed2e 35a6 d02c fd26 962a 29ac 5ba0
000000f0: 5d9c 742e 3d2d 9c19 ec2c b59e 662e 862f
00000100: f525 1fac f92a 172c 7423 64a5 7fb0 29a5
00000110: 9ea2 f49e db28 cfad 302f e82c 2d2d 26ad
00000120: e0af b024 d50c 502d 8724 672f 1eab 592a
00000130: 95b0 3c2b faae dbaa 29ac 07b0 85a4 a730
00000140: 4bab 59ad 022b c7aa 4a2c 381c 8dad 9aa4
00000150: a5af 4bad a9ac d52e c4ab 022f 2028 8530
00000160: 4b2c f619 dea9 e3ac 4e2d 902d d528 eba4
00000170: 21b0 5dac f4af 99ad b5af a1ad 01a9 a4b0
00000180: 5930 1f2c 2d15 0fa1 592e 9d2e 1421 cf28
00000190: 13a6 5d30 61af 662d c11d 3211 1cad 702c
000001a0: 48af 61b0 82ac 45a8 9830 681a 632f 7630
000001b0: faae 8230 07af 2125 a22e 9d10 6eae 7bb0
000001c0: fdaa 2ab0 43b0 9824 e327 0c30 03a8 892e
000001d0: b12b 8c30 b0b0 62ae 00ac 6aa9 1830 b2ab
000001e0: 1523 c52f b4b0 342d faaa 1b18 9a2a ac2f
000001f0: c1aa 2a30 f128 a023 032c cfa8 c6a0 78ac

arith.constant27 f2 [64]
-0.02197 0.014015 0.017 -0.03973 -0.00381 -0.03084 -0.01811 -0.0283
-0.00756 -0.02425 -0.01938 0.0516 0.02995 -0.01732 -0.007313 -0.02562
0.02718 -0.01222 0.04352 0.0425 -0.01707 0.05844 -0.000554 -0.0113
-0.0087 0.000984 -0.01383 -0.06915 0.00689 -0.06775 -0.02782 -0.007145
-0.0004303 -0.007412 0.02715 -0.0699 0.003078 0.0573 -0.00875 0.0091
-0.141 0.0363 -0.01733 -0.006752 0.00762 -0.0511 -0.02284 -0.01309
0.01779 0.02058 0.00565 -0.03308 -0.013435 -0.01648 -0.005123 0.02014
-0.00688 0.01345 0.07 -0.01535 -0.000888 0.03464 -0.05762 0.02626
00000000: a0a5 2d23 5a24 16a9 ce9b e5a7 a3a4 3fa7
00000010: be9f 35a6 f6a4 9b2a ab27 6fa4 7d9f 8fa6
00000020: f526 42a2 9229 7129 5fa4 7b2b 8a90 c9a1
00000030: 74a0 0814 15a3 6dac 0e1f 56ac 1fa7 519f
00000040: 0d8f 979f f326 79ac 4e1a 562b 7ba0 a920
00000050: 83b0 a528 70a4 ea9e ce1f 8aaa d9a5 b4a2
00000060: 8e24 4525 c91d 3ca8 e1a2 38a4 3f9d 2825
00000070: 0c9f e322 7b2c dca3 4693 6f28 60ab b926

arith.constant28 f2 [1, 3, 64, 128]
-0.02414 -0.05478 0.01551 0.04126 -0.0941 -0.09015 -0.06064 -0.07916
0.07117 -0.03488 -0.03806 0.0688 0.07196 0.007263 0.0796 0.0011425
0.0632 0.0984 0.04608 0.0249 -0.01843 -0.05576 0.0463 -0.07544
-0.002468 -0.03967 0.04922 0.066 0.069 -0.0006547 0.05603 -0.03522
-0.07587 -0.0596 -0.063 -0.06232 -0.05298 0.01242 0.1032 -0.083
0.06525 -0.11975 -0.09125 0.044 -0.006596 0.0677 0.01131 -0.0981
-0.03528 -0.02162 0.11566 0.0692 -0.02731 0.0577 -0.09705 -0.07214
0.05402 0.06165 -0.0908 0.09485 0.1295 0.01306 -0.05817 -0.012856
0.02132 -0.09247 0.05948 0.0985 -0.0233 -0.0918 0.03802 0.002216
-0.01564 0.0801 -0.07434 0.0329 -0.00516 0.02495 -0.0789 -0.0199
-0.03516 -0.05664 0.06885 0.001204 -0.0715 0.07874 -0.0884 -0.0582
-0.08344 -0.0673 -0.0633 -0.02583 0.07056 0.10394 0.06223 0.01527
-0.02274 0.01055 0.04224 -0.03091 0.08405 0.1359 0.09033 0.02687
-0.05994 0.04346 0.06287 -0.0631 -0.05328 -0.03616 0.002779 0.04633
0.06726 -0.04803 -0.02097 0.0377 -0.07446 0.07947 -0.08844 -0.04254
0.0858 -0.03577 0.07806 -0.04495 0.0334 -0.0902 -0.01622 -0.04517
0.0789 -0.006138 0.001018 -0.01406 0.09424 -0.11694 -0.1353 -0.112
-0.1617 0.04953 0.12054 -0.0325 0.02708 -0.1256 0.004295 -0.04626
-0.0665 -0.004128 0.03876 0.0702 -0.01892 0.0908 0.1076 -0.00258
-0.0191 -0.093 0.0946 -0.0916 -0.001842 -0.04382 -0.0895 0.1549
-0.11456 0.1007 0.05716 0.05847 -0.08875 0.1796 0.0836 -0.0649
-0.0639 0.05084 0.11334 -0.02107 -0.0224 0.10266 0.0638 -0.11615
0.0788 -0.1709 -0.001165 -0.0166 -0.04715 0.02455 0.06903 -0.0988
-0.0715 -0.01753 0.11884 -0.0274 0.01894 0.0585 -0.0566 -0.05063
0.11017 0.1172 0.11456 -0.1337 -0.135 0.05273 0.00988 0.08105
0.03738 0.04553 0.04205 0.03168 -0.02635 -0.0737 -0.0483 0.1692
0.02025 -0.12286 0.01514 0.0649 -0.10236 -0.01322 -0.009514 0.01407
-0.0476 0.1564 -0.02422 0.0494 0.095 -0.01279 0.0706 -0.0583
0.176 -0.0947 0.0739 -0.006115 0.1409 0.08105 0.11584 -0.10547
-0.105 -0.0771 -0.04263 -0.00815 -0.02612 0.01633 -0.1697 0.06445
-0.0361 -0.0803 0.0726 -0.0001153 -0.0542 0.07166 0.09924 -0.0598
-0.0179 -0.1576 0.01099 0.10767 0.01265 0.01257 0.0657 -0.09436
00000000: 2ea6 03ab f123 4829 06ae c5ad c3ab 11ad
00000010: 8e2c 77a8 dfa8 672c 9b2c 701f 182d ae14
00000020: 0b2c 4c2e e629 6026 b8a4 23ab ed29 d4ac
00000030: 0e99 14a9 4d2a 392c 6a2c 5d91 2c2b 82a8
00000040: dbac a1ab 08ac faab c8aa 5c22 9b2e 50ad
00000050: 2d2c aaaf d7ad a229 c19e 552c ca21 47ae
00000060: 84a8 89a5 672f 6e2c fea6 632b 36ae 9eac
00000070: ea2a e42b d0ad 122e 2530 b022 72ab 95a2
00000080: 7525 ebad 9d2b 4e2e f7a5 e0ad de28 8a18
00000090: 01a4 202d c2ac 3628 499d 6326 0dad 18a5
000000a0: 80a8 40ab 682c ee14 93ac 0a2d a8ad 73ab
000000b0: 57ad 4fac 0dac 9da6 842c a72e f72b d123
000000c0: d2a5 6721 6829 eaa7 612d 5930 c82d e126
000000d0: acab 9029 062c 0aac d2aa a1a8 b119 ee29
000000e0: 4e2c 26aa 5ea5 d328 c4ac 162d a9ad 72a9
000000f0: 7e2d 94a8 ff2c c1a9 4628 c6ad 27a4 c8a9
00000100: 0d2d 499e 2b14 33a3 082e 7caf 54b0 2baf
00000110: 2db1 572a b72f 29a8 ef26 05b0 661c eca9
00000120: 42ac 3a9c f628 7e2c d8a4 d02d e32e 4999
00000130: e4a4 f4ad 0e2e ddad 8b97 9ca9 baad f530
00000140: 55af 722e 512b 7c2b aead bf31 5a2d 27ac
00000150: 17ac 822a 412f 65a5 bca5 922e 152c 6faf
00000160: 0b2d 78b1 c694 40a4 09aa 4926 6b2c 53ae
00000170: 93ac 7da4 9b2f 04a7 d924 7d2b 3fab 7baa
00000180: 0d2f 802f 552f 47b0 52b0 c02a 0f21 302d
00000190: c928 d429 6229 0e28 bfa6 b8ac 2faa 6a31
000001a0: 2f25 ddaf c023 272c 8dae c5a2 dfa0 3423
000001b0: 18aa 0131 33a6 532a 142e 8ca2 852c 76ab
000001c0: a231 10ae bb2c 439e 8230 302d 6a2f c0ae
000001d0: b8ae efac 75a9 2ca0 b0a6 2e24 6eb1 202c
000001e0: 9fa8 24ad a52c 8e87 f0aa 962c 5a2e a8ab
000001f0: 95a4 0bb1 a021 e42e 7a22 7022 342c 0aae

arith.constant29 f2 [128]
-0.01761 0.02187 -0.02405 -0.0234 -0.02527 0.0463 0.0223 0.02876
0.003809 -0.01962 0.0305 0.01926 -0.008316 0.003733 0.004234 -0.04242
0.003744 0.02356 0.02628 0.01903 0.0001076 -0.01421 0.02815 0.02325
-0.007385 0.05963 -0.00257 0.01119 -0.004272 -0.003563 -0.0093 -0.001353
0.03302 0.005833 0.012634 -0.01013 -0.005806 0.0398 -0.013405 0.01205
0.04434 -0.002987 0.001483 0.007214 -0.049 0.0158 0.00877 -0.02794
-0.00963 0.015396 -0.0004802 0.003027 -0.0331 -0.01304 -0.002312 0.011086
-0.006783 0.005135 -0.03452 0.00833 0.01762 -0.003698 -0.01042 -0.01872
0.007298 0.002863 0.013725 0.03485 0.01278 0.00854 -0.01278 -0.02142
-0.013336 0.01378 0.01775 0.02402 0.004612 0.0595 0.00506 0.013405
0.01584 -0.02435 0.00886 0.0386 0.001078 -0.03842 -0.0001028 -0.0185
0.05435 -0.004284 0.01904 0.01115 0.02069 0.005833 -0.005295 0.0209
-0.03394 0.02669 0.0093 0.00314 0.01802 -0.008766 -0.02664 -0.04477
-0.002905 0.001675 -0.014046 0.03513 -0.00789 0.0212 0.078 0.00623
0.00552 -0.05576 0.01813 -0.03256 0.01063 0.02908 -0.001484 -0.02687
-0.01582 0.02963 0.01874 0.02858 0.006783 0.00436 0.0397 -0.01069
00000000: 82a4 9925 28a6 fea5 78a6 ed29 b525 5d27
00000010: cd1b 06a5 cf27 ee24 42a0 a51b 561c 6ea9
00000020: ab1b 0826 ba26 df24 0d07 47a3 3527 f425
00000030: 909f a22b 4399 bb21 609c 4c9b c3a0 8b95
00000040: 3a28 f91d 7822 30a1 f29d 1829 dda2 2b22
00000050: ad29 1e9a 1316 631f 46aa 0b24 7e20 27a7
00000060: eea0 e223 de8f 331a 3da8 ada2 bc98 ad21
00000070: f29e 421d 6ba8 4420 8324 939b 56a1 cba4
00000080: 791f dd19 0723 7628 8b22 5f20 8ba2 7ca5
00000090: d4a2 0e23 8b24 2626 b91c 9e2b 2e1d dd22
000000a0: 0e24 3ca6 8920 f128 6a14 eba8 bd86 bca4
000000b0: f52a 639c e024 b521 4c25 f91d 6c9d 5a25
000000c0: 58a8 d526 c320 6e1a 9d24 7da0 d2a6 bba9
000000d0: f399 dc16 31a3 7f28 0aa0 6d25 fe2c 611e
000000e0: a71d 23ab a424 2ba8 7121 7227 1496 e1a6
000000f0: 0da4 9627 cc24 5127 f21e 771c 1529 79a1

arith.constant30 f2 [64]
0.05774 -0.03079 0.005894 -0.01397 0.05603 -0.012184 0.05893 -0.006054
-0.06494 0.01863 0.004578 0.0113 0.01895 -0.01146 0.01648 -0.00199
0.01222 -0.0589 -0.03146 -0.01539 0.01707 -0.02905 -0.03198 -0.05005
-0.05728 -0.00393 0.01965 0.000549 -0.03333 0.02567 0.00929 -0.05966
0.0384 0.01828 -0.05307 -0.00885 0.02046 -0.01081 0.04614 0.03093
-0.003214 0.0964 -0.00758 0.06015 -0.0542 0.0832 0.0273 -0.02412
-0.03604 -0.008965 0.03717 0.04965 0.04425 0.03017 -0.02522 -0.0068
0.02916 0.00935 -0.01814 -0.004265 -0.02803 -0.001753 0.05215 0.015076
00000000: 642b e2a7 091e 27a3 2c2b 3da2 8b2b 339e
00000010: 28ac c524 b01c c921 da24 dea1 3824 1398
00000020: 4222 8aab 07a8 e1a3 5f24 70a7 18a8 68aa
00000030: 55ab 069c 0825 7f10 44a8 9226 c220 a3ab
00000040: ea28 ae24 cbaa 88a0 3d25 89a1 e829 eb27
00000050: 959a 2b2e c39f b32b f0aa 532d fd26 2da6
00000060: 9da8 97a0 c228 5b2a aa29 b927 75a6 f79e
00000070: 7727 ca20 a5a4 5e9c 2da7 2e97 ad2a b823

arith.constant31 f2 [4]
-0.0317 -0.0574 0.04453 0.0385
00000000: 0fa8 59ab b329 ee28

arith.constant36 f2 [64, 128]
-0.03357 -0.03638 -0.06604 -0.00672 0.04944 -0.00956 -0.04425 0.0007625
0.04327 -0.00525 -0.0858 -0.1115 0.0918 -0.08496 -0.01252 -0.05222
0.03482 0.08307 -0.0785 0.11725 0.05225 -0.1631 -0.06445 0.0606
-0.1179 -0.1098 0.007465 -0.1311 -0.1415 -0.1267 0.0879 -0.04163
-0.11273 0.01032 0.01634 0.02077 0.05618 -0.06042 -0.01182 -0.1451
-0.02164 0.02826 -0.01863 0.0373 -0.1346 -0.07336 0.05682 0.04153
0.06714 -0.007935 0.05313 -0.1394 0.03217 -0.1237 -0.02635 0.03296
-0.09595 -0.1692 -0.00746 0.09753 0.1055 0.0764 0.08203 0.02798
0.01443 -0.002535 0.1444 -0.1519 0.03183 0.0629 -0.1527 -0.0888
0.05493 0.04697 0.04938 0.0796 -0.0409 0.0662 -0.012 0.02824
-0.01247 -0.07306 -0.1371 0.03928 0.0713 -0.04257 0.05795 0.08844
-0.03412 -0.001058 -0.03937 0.009514 -0.08057 -0.0677 0.1572 -0.1481
0.0383 0.03925 -0.1287 -0.0172 -0.0792 -0.0755 0.01322 -0.1249
0.12054 0.0006027 -0.0756 -0.012085 0.06223 -0.0133 -0.003807 -0.0781
0.03677 -0.00691 0.001849 0.0006886 -0.0418 0.066 0.1079 0.022
-0.1077 -0.07153 -0.0777 -0.04773 -0.12054 -0.06836 0.0701 0.1353
-0.1203 0.06216 -0.1252 -0.07336 0.03494 0.10834 -0.01548 0.1447
-0.0009403 0.00755 0.011765 -0.0175 -0.001141 0.11273 -0.01855 -0.1326
0.0805 0.01987 0.02744 -0.1647 0.05118 0.04764 0.0644 0.167
0.0538 0.05026 -0.02222 -0.1035 -0.0463 -0.1293 0.0566 0.0333
0.02136 0.0829 0.02014 -0.04453 -0.1114 -0.10425 0.05905 0.02396
-0.02232 -0.05234 -0.013916 0.08923 -0.1163 0.0651 0.07904 -0.1497
0.03967 0.0485 -0.06573 -0.04572 -0.01181 -0.099 0.0744 0.0833
0.00933 0.07983 0.01802 -0.0649 0.1288 -0.0664 -0.1006 0.00804
-0.05304 -0.01557 -0.0393 -0.03763 -0.0708 -0.02628 -0.1113 -0.03818
0.0754 -0.0357 0.0689 0.02509 0.01686 -0.0573 -0.1394 0.04883
-0.1136 0.00802 0.0792 -0.03186 -0.1688 -0.013695 0.01132 0.01895
0.03345 -0.0232 -0.0591 -0.01508 0.09344 -0.0905 -0.004528 0.01018
0.02135 0.1306 -0.0353 -0.007088 -0.0853 -0.12164 -0.04672 -0.1415
-0.0726 0.03787 -0.0971 -0.11066 -0.09424 -0.1326 -0.04956 0.001863
0.04825 -0.07855 -0.003164 -0.04938 0.001389 0.004295 -0.1069 -0.0567
-0.1085 0.01964 -0.0767 -0.08264 -0.12396 0.0534 0.092 0.1722
00000000: 4ca8 a8a8 3aac e29e 542a e5a0 aaa9 3f12
00000010: 8a29 609d 7ead 23af e02d 70ad 69a2 afaa
00000020: 7528 512d 06ad 812f b02a 38b1 20ac c22b
00000030: 8caf 07af a51f 32b0 87b0 0eb0 a02d 54a9
00000040: 37af 4921 2f24 5125 312b bcab 0da2 a5b0
00000050: 8aa5 3c27 c5a4 c628 4fb0 b2ac 462b 5129
00000060: 4c2c 10a0 cd2a 76b0 1e28 ebaf bfa6 3828
00000070: 24ae 6ab1 a49f 3e2e c12e e42c 402d 2a27
00000080: 6323 3199 9f30 dcb0 1328 072c e3b0 afad
00000090: 082b 032a 522a 182d 3ca9 3d2c 25a2 3b27
000000a0: 62a2 adac 63b0 0729 902c 73a9 6b2b a92d
000000b0: 5ea8 5594 0aa9 df20 28ad 55ac 0831 bdb0
000000c0: e728 0629 1eb0 67a4 12ad d5ac c522 feaf
000000d0: b72f f010 d7ac 30a2 f72b cfa2 cc9b 00ad
000000e0: b528 139f 9317 a411 5aa9 392c e82e a225
000000f0: e5ae 94ac f9ac 1caa b7af 60ac 7d2c 5430
00000100: b3af f52b 02b0 b2ac 7928 ef2e eda3 a130
00000110: b493 bb1f 0622 7ba4 ac94 372f c0a4 3eb0
00000120: 272d 1625 0627 45b1 8d2a 192a 1f2c 5831
00000130: e32a 6f2a b0a5 a0ae eda9 23b0 3f2b 4328
00000140: 7825 4e2d 2825 b3a9 21af acae 8f2b 2226
00000150: b7a5 b3aa 20a3 b62d 71af 2b2c 0f2d cab0
00000160: 1429 352a 35ac daa9 0ca2 56ae c32c 552d
00000170: c720 1c2d 9d24 27ac 1f30 40ac 70ae 1e20
00000180: caaa f9a3 08a9 d1a8 88ac baa6 20af e3a8
00000190: d32c 92a8 692c 6c26 5124 56ab 76b0 402a
000001a0: 45af 1b20 122d 14a8 67b1 03a3 cc21 da24
000001b0: 4828 f0a5 91ab b9a3 fb2d cbad a39c 3621
000001c0: 7725 2e30 85a8 429f 76ad c9af fba9 87b0
000001d0: a5ac d928 37ae 15af 08ae 3eb0 58aa a117
000001e0: 2d2a 07ad 7b9a 52aa b015 661c d7ae 42ab
000001f0: f2ae 0725 e9ac 4aad efaf d62a e32d 8331

arith.constant37 f2 [64, 128]
0.013214 0.0401 0.01224 -0.000738 -0.094 -0.0374 -0.08124 0.0893
0.006382 -0.1256 0.0789 -0.12317 -0.04825 -0.005302 -0.01202 -0.1037
-0.0834 -0.02151 -0.09766 0.0798 0.02292 -0.0318 -0.0741 0.129
-0.1298 0.0977 -0.0906 -0.0275 0.0937 0.1299 -0.008255 -0.0414
0.07733 -0.0262 0.07324 -0.108 -0.1298 -0.0333 0.1107 0.04486
-0.1023 -0.04056 0.1096 -0.1067 0.04678 -0.1483 0.08276 0.06247
0.06 0.0781 -0.0941 0.08636 -0.01613 0.1094 -0.08624 -0.0508
-0.04013 0.0984 0.03757 0.03647 -0.05237 -0.09094 -0.005646 0.00995
-0.00862 0.11847 0.0385 0.0871 -0.1517 0.05084 0.04745 -0.0911
-0.06915 -0.0742 0.0203 -0.01323 -0.0454 -0.1224 0.03787 0.0943
-0.0777 0.0518 0.06323 -0.03867 0.0352 0.03336 -0.02791 -0.0767
-0.005093 -0.1309 -0.0801 -0.0327 -0.0786 0.0781 -0.1102 0.1378
-0.1014 0.0827 -0.12396 -0.02664 -0.11566 0.0357 -0.0647 -0.1451
-0.1192 0.04184 -0.1203 -0.124 -0.0461 0.0831 0.00511 -0.073
-0.0988 -0.002733 -0.12366 0.0006995 0.04776 0.1248 0.0715 -0.10986
0.11115 0.012535 -0.010704 -0.09534 -0.02968 -0.04272 -0.001726 0.011375
-0.1003 -0.02582 -0.05774 -0.04987 -0.0813 -0.1299 -0.06024 -0.04337
-0.10864 0.01526 0.03607 0.05746 0.00447 -0.05905 -0.0653 -0.105
0.10675 -0.11755 0.1401 -0.02711 0.01845 -0.0482 -0.04578 -0.1404
-0.05692 0.1301 -0.0746 -0.01054 0.11237 0.0125 0.1266 -0.0314
0.1266 0.00855 -0.10614 -0.0889 0.1088 0.01006 0.0795 -0.09766
-0.03992 -0.04077 -0.04062 -0.08514 -0.008644 0.02748 -0.04202 -0.02812
-0.0733 0.03918 0.05933 0.12036 0.0935 -0.05966 0.0827 -0.03757
-0.05057 0.02258 -0.1095 -0.1124 -0.09705 -0.06027 -0.05804 0.1232
0.06143 0.08203 -0.06964 0.00711 -0.10895 -0.04483 0.00801 -0.1103
0.0612 -0.05573 0.03735 -0.08527 -0.008 -0.10394 0.05164 -0.113
0.0724 0.04382 0.06012 -0.07245 0.01573 -0.04117 -0.1052 0.0232
-0.07184 0.1 0.034 -0.02596 -0.1481 0.003593 -0.0808 -0.02632
0.05362 -0.0577 -0.03049 0.07074 0.04095 -0.1356 -0.03607 -0.03757
-0.0928 0.01942 -0.06396 0.0388 -0.128 -0.06635 -0.01894 0.02762
-0.06464 0.0325 0.005047 -0.033 -0.001521 -0.01933 -0.002449 0.03653
-0.0574 -0.1188 0.1273 -0.05334 0.04672 0.06775 0.0404 0.03723
00000000: c422 2229 4422 0c92 04ae caa8 33ad b72d
00000010: 891e 05b0 0d2d e2af 2daa 6e9d 27a2 a3ae
00000020: 56ad 82a5 40ae 1b2d de25 12a8 beac 2130
00000030: 27b0 412e ccad 0aa7 ff2d 2830 3aa0 4da9
00000040: f32c b5a6 b02c e9ae 27b0 43a8 162f be29
00000050: 8cae 31a9 042f d4ae fd29 bfb0 4c2d ff2b
00000060: ae2b 002d 06ae 872d 21a4 002f 85ad 81aa
00000070: 23a9 4c2e cf28 ab28 b4aa d2ad c89d 1821
00000080: 6aa0 952f ee28 932d dbb0 822a 132a d5ad
00000090: 6dac c0ac 3225 c6a2 d0a9 d5af d928 092e
000000a0: f9ac a12a 0c2c f3a8 8128 4528 25a7 e9ac
000000b0: 379d 30b0 20ad 30a8 08ad 002d 0eaf 6930
000000c0: 7dae 4b2d efaf d2a6 67af 9228 24ac a5b0
000000d0: a1af 5b29 b3af f0af e7a9 522d 3c1d acac
000000e0: 53ae 9999 eaaf bb11 1d2a fd2f 932c 08af
000000f0: 1d2f 6b22 7ba1 1aae 99a7 78a9 1297 d321
00000100: 6bae 9ca6 64ab 62aa 34ad 28b0 b6ab 8da9
00000110: f4ae d023 9e28 5b2b 941c 8fab 2eac b8ae
00000120: d52e 86af 7c30 f1a6 b924 2baa dca9 7eb0
00000130: 49ab 2a30 c6ac 65a1 312f 6622 0d30 05a8
00000140: 0d30 6120 cbae b1ad f72e 2721 172d 40ae
00000150: 1ca9 38a9 33a9 73ad 6da0 0927 61a9 33a7
00000160: b1ac 0429 982b b42f fc2d a3ab 4b2d cfa8
00000170: 79aa c825 02af 32af 36ae b7ab 6eab e32f
00000180: dd2b 402d 75ac 481f f9ae bda9 1a20 0faf
00000190: d52b 22ab c828 75ad 19a0 a7ae 9c2a 3baf
000001a0: a22c 9c29 b22b a3ac 0724 45a9 bcae f025
000001b0: 99ac 662e 5a28 a5a6 bdb0 5c1b 2cad bda6
000001c0: dd2a 63ab cea7 872c 3e29 57b0 9ea8 cfa8
000001d0: f0ad f924 18ac f728 19b0 3fac d9a4 1227
000001e0: 23ac 2928 2b1d 39a8 3b96 f3a4 0499 ad28
000001f0: 59ab 9aaf 1330 d4aa fb29 562c 2c29 c428

arith.constant38 f2 [64, 128]
0.12463 0.12164 0.05692 0.0768 -0.0493 0.08905 0.0878 0.11096
-0.0592 0.00939 0.1149 -0.03546 0.09485 -0.0327 -0.0677 0.007248
-0.0918 -0.01727 -0.07056 0.02109 0.1381 -0.11743 0.005157 -0.003149
-0.02824 -0.09326 0.1558 0.0824 -0.08545 0.02408 0.0583 -0.04355
0.001709 -0.10944 0.06027 0.02084 0.05505 0.02336 -0.00633 -0.0262
0.02982 0.1019 -0.0224 -0.06555 -0.03195 -0.05502 -0.01178 -0.009186
0.081 0.03995 0.04254 -0.1005 0.07776 0.0502 -0.1021 0.01164
-0.0341 0.11115 0.046 0.05933 0.00169 0.1123 0.0288 -0.1276
0.06235 -0.01755 -0.06573 -0.0344 0.0414 -0.10223 0.0955 0.05585
-0.0685 0.10144 -0.11426 0.04767 -0.02188 -0.0697 0.07526 0.10406
-0.0592 0.009514 0.1289 0.12115 -0.0447 0.10486 0.08295 -0.007015
0.0772 -0.0595 -0.001974 0.10284 -0.01032 0.0809 0.05563 -0.06793
0.06934 0.05914 0.01564 0.00328 -0.03726 -0.02843 0.05356 -0.00355
0.04367 0.0748 0.002172 -0.0691 0.122 0.0818 0.0765 0.007626
0.1298 -0.0881 -0.0153 0.02533 0.1307 0.1021 0.006714 0.0601
0.002527 0.04446 -0.0594 0.01189 -0.01374 0.0922 0.1577 0.0386
0.04727 -0.02644 0.0841 -0.0742 -0.0779 0.04092 0.0832 -0.05267
-0.1271 -0.007046 -0.02197 -0.1212 -0.09564 0.01554 -0.0005655 -0.07886
-0.001353 0.03445 0.01846 -0.0666 0.11017 0.01872 -0.1503 0.1484
0.05783 -0.10925 -0.05673 -0.01599 0.0462 0.0425 -0.0749 -0.0785
-0.07513 -0.05502 0.1282 0.0779 -0.06744 0.06476 -0.04822 0.05295
-0.1054 0.010025 -0.07336 0.1068 -0.042 -0.06238 -0.1301 -0.1029
-0.04156 -0.04077 0.00968 0.01095 -0.07 -0.03632 0.02528 0.0921
0.01427 -0.06125 -0.1293 -0.0656 0.05283 0.01192 0.1279 -0.0924
-0.03683 0.03366 -0.0683 -0.03326 -0.00815 0.01814 -0.02304 0.1087
0.06726 0.07324 -0.11316 0.02928 -0.015076 -0.03204 0.0173 -0.07275
-0.0441 0.05878 0.12024 -0.06726 -0.0719 -0.02277 -0.085 -0.0576
-0.05774 -0.127 -0.1401 -0.10974 -0.01985 -0.05643 -0.01826 0.06094
0.0175 0.02808 0.013 0.0789 0.05548 -0.035 -0.1454 0.1038
-0.05774 -0.0767 -0.1058 -0.09106 -0.03995 -0.01663 0.0815 -0.1602
-0.079 -0.1046 -0.01044 -0.07935 -0.06537 -0.1556 -0.1475 0.0699
-0.0609 -0.0786 0.0733 -0.07916 -0.06635 -0.02898 0.12024 -0.0857
00000000: fa2f c92f 492b ea2c 4faa b32d 9f2d 1a2f
00000010: 94ab cf20 5b2f 8aa8 122e 30a8 55ac 6c1f
00000020: e0ad 6ca4 84ac 6625 6b30 84af 481d 739a
00000030: 3ba7 f8ad fc30 462d 78ad 2a26 762b 93a9
00000040: 0017 01af b72b 5625 0c2b fb25 7b9e b5a6
00000050: a227 862e bca5 32ac 17a8 0bab 08a2 b4a0
00000060: 2f2d 1d29 7229 6fae fa2c 6d2a 89ae f621
00000070: 5da8 1d2f e329 982b ec16 302f 5f27 15b0
00000080: fb2b 7ea4 35ac 67a8 4d29 8bae 1d2e 262b
00000090: 62ac 7e2e 50af 1a2a 9aa5 76ac d12c a92e
000000a0: 94ab df20 2030 c12f b9a9 b62e 4f2d 2f9f
000000b0: f12c 9eab 0b98 952e 49a1 2d2d 1f2b 59ac
000000c0: 702c 922b 0124 b81a c5a8 47a7 db2a 459b
000000d0: 9729 ca2c 7318 6cac cf2f 3c2d e52c cf1f
000000e0: 2730 a3ad d5a3 7c26 2f30 892e e01e b12b
000000f0: 2d19 b129 9aab 1622 09a3 e72d 0c31 f128
00000100: 0d2a c5a6 622d c0ac fcac 3d29 532d beaa
00000110: 11b0 379f a0a5 c2af 1fae f523 a290 0cad
00000120: 8b95 6928 ba24 43ac 0d2f cb24 cfb0 c030
00000130: 672b feae 43ab 18a4 ea29 7129 cbac 06ad
00000140: cfac 0bab 1a30 fc2c 51ac 252c 2caa c72a
00000150: bfae 2221 b2ac d62e 60a9 fcab 2ab0 96ae
00000160: 52a9 38a9 f520 9b21 7bac a6a8 7926 e52d
00000170: 4e23 d7ab 23b0 33ac c32a 1a22 1830 eaad
00000180: b7a8 4f28 5fac 42a8 2ca0 a524 e6a5 f52e
00000190: 4e2c b02c 3eaf 7f27 b8a3 1aa8 6e24 a8ac
000001a0: a5a9 862b b22f 4eac 9aac d4a5 71ad 5fab
000001b0: 64ab 10b0 7cb0 06af 15a5 39ab ada4 cd2b
000001c0: 7b24 3027 a822 0d2d 1a2b 7ba8 a7b0 a52e
000001d0: 64ab e9ac c5ae d4ad 1da9 42a4 372d 20b1
000001e0: 0ead b2ae 58a1 14ad 2fac fbb0 b8b0 792c
000001f0: ccab 08ad b12c 11ad 3fac 6ba7 b22f 7cad
